best-mlp.pth (torch, 308801 bytes, 12 tensors)

layers.0.weight f4 [32, 784]
000000 46 80 32 3b c8 03 d7 3c 65 a5 22 bc b7 0d 14 bc
       0.0027237101 0.02624692 -0.009927128 -0.009036473
000010 38 f6 a0 bc cf e9 b4 bc c3 1f 23 3d e1 43 28 3d
       -0.019648656 -0.022084145 0.039825212 0.04108036
000020 1b ae 13 3c 3d 0a 5d bb 14 5c e5 3c 1a ca f9 3c
       0.009013678 -0.0033728026 0.027998008 0.030491877
000030 11 b9 12 bc e1 84 56 bc 7a 28 02 3d 71 5a 22 3d
       -0.008955256 -0.013093204 0.031776883 0.039637033
000040 11 45 ba 3b 0c ff 9f bb 41 ca a3 3c 65 41 66 bc
       0.005684503 -0.004882699 0.019993903 -0.014053677
000050 a6 c4 8f bc 4c 60 fb 3c 68 84 d6 3c 7b 51 8e 3c
       -0.017549824 0.030685566 0.026186183 0.017372837
000060 36 11 68 3b 59 66 9b 3c c2 76 29 ba f1 e6 a0 bc
       0.003541065 0.018969702 -0.00064645347 -0.019641371
000070 99 5c c1 3b fc 1f ba 3c 0b b1 5c 3c 00 d7 61 ba
       0.005900931 0.02272033 0.013469945 -0.00086151063
000080 03 07 3f bc 01 19 a0 bc 44 cd a5 bb ce 3c 88 bc
       -0.011659387 -0.019543173 -0.00505987 -0.016630556
000090 94 24 c4 bc 6c 0d f4 b8 76 87 97 3c ad 0a 56 bc
       -0.023943223 -0.00011637327 0.01849721 -0.013064069
0000a0 35 74 a0 3c 74 e8 ca bc 7b 44 14 bc 07 10 08 3d
       0.019586662 -0.024769045 -0.00904953 0.03321841
0000b0 2f 6c 8e 3c f4 15 1f bb fa e3 a0 bc e5 84 b4 3c
       0.01738557 -0.002427456 -0.019639958 0.022036025
0000c0 04 2f 99 3c 7b de 1b bc c7 3b 83 3b 0e 85 f2 3c
       0.018699177 -0.009513493 0.0040049287 0.029604461
0000d0 12 35 d3 3c bb 2d 2b 3d 6b 6d 31 bc 2a eb 08 3d
       0.025782142 0.04179166 -0.01082931 0.033427395
0000e0 ee b7 90 bc 2d ae cb bc 5b 2c 1f bc 55 42 17 3d
       -0.01766583 -0.024863327 -0.009715165 0.036928494
0000f0 ab 97 1b 3c a0 6e 80 bb ef a3 c1 bc 3b e8 13 3d
       0.00949661 -0.0039194375 -0.02363774 0.036110144
000100 8b 1e 28 3d f6 f0 40 bc 45 a0 4a 3b 13 9c 82 bc
       0.041044753 -0.0117762 0.0030918282 -0.015943563
000110 a4 d8 b7 3c 76 11 e8 3c 80 29 87 3c fc 2c dd 3c
       0.02244217 0.028328639 0.01649928 0.02699899
000120 e9 6e 88 3c ca 41 95 bc f0 21 43 bc 43 1a d9 bb
       0.016654449 -0.018219847 -0.011909947 -0.006625445
000130 8e 89 f1 3c 5a 2b dc 3c 3b 50 31 bb ba 9a b4 bc
       0.029484536 0.02687614 -0.0027055878 -0.022046436
000140 3f 0f cc bc 2c 83 8e bc 30 a3 f8 3c b3 a1 a4 3c
       -0.024909614 -0.017396532 0.030351251 0.020096635
000150 0e 02 ea 3c 31 77 ba bc 67 07 2b bc d6 b3 2f 3b
       0.028565433 -0.022761913 -0.010438777 0.0026810071
000160 bb ea b5 bb 94 f7 5f bb e3 11 e0 bc bc 87 b2 3c
       -0.0055516637 -0.0034174668 -0.027352279 0.021793239
000170 61 f6 d6 3c a1 dd 0a 3d af fb 10 3d 20 b3 a7 3c
       0.02624053 0.033902768 0.035396274 0.020471156
000180 34 3e 21 3c fc e2 a2 bc 13 a3 aa bc 45 9f 62 bc
       0.009841491 -0.019883625 -0.020829713 -0.013831918
000190 87 09 fe 3c a7 b1 af 3c 97 e6 39 bc 94 61 2d 3a
       0.031010402 0.021447016 -0.011346481 0.00066139665
0001a0 85 c9 59 3c eb f1 ca 3c 47 2d 07 3d 52 2f 91 bc
       0.013292675 0.024773559 0.033002164 -0.01772276
0001b0 43 67 15 3d 29 a6 a0 3b d3 4b d1 bc 97 7d 76 3c
       0.03647543 0.0049026203 -0.025548851 0.015044591
0001c0 9f 4d 12 bc ce 20 da 3c ca ef c2 3c d8 e1 a1 39
       -0.008929639 0.02662697 0.023795981 0.0003087658
0001d0 78 a7 e0 3c ca 39 fe bb e4 e9 83 3c f1 9e 1a 3d
       0.027423605 -0.007758354 0.016102739 0.037749235
0001e0 07 8d 29 3d 1b c4 bb 3c 7a 90 c6 3c 86 db 76 3c
       0.04139426 0.022920659 0.024238814 0.015066987
0001f0 a3 b3 0b bd c7 9d f8 3c 25 15 03 bd 00 09 59 3c
       -0.03410686 0.030348672 -0.032002587 0.013246775
000200 54 c3 bf bb cd 6c f7 3c 8b 7b 9e bb 0d 55 df bc
       -0.0058521423 0.030203247 -0.004836505 -0.027262235
000210 c5 5e 1d 3d bb e3 6e bc 54 9c 8c bc 97 17 63 3c
       0.038420457 -0.014580662 -0.017164387 0.013860605
000220 f7 a8 74 3c 7f a4 83 3c 24 fb db bc d8 20 dd 3b
       0.0149328625 0.016069649 -0.026853152 0.0067483
000230 69 30 1d bc 5e b8 46 bc 99 ab ac 3b bd 7f cb bc
       -0.009594061 -0.0121289175 0.0052694795 -0.024841184
000240 e6 ad 5d bc ca 1c 11 3d 3c e6 c7 bb ab e8 2f 3b
       -0.01353023 0.035427846 -0.006100444 0.0026841562
000250 cd 80 f4 3c e0 31 67 bc 16 3a 85 bc b7 74 5d bc
       0.029846573 -0.014111012 -0.01626305 -0.0135165965
000260 71 3c a5 bb b6 bd 89 3c b9 ca a2 3c 6c 5f 0d bc
       -0.0050426056 0.016814094 0.019872056 -0.008628707
000270 4d 58 f3 bc c4 65 43 3c f4 f1 28 3c d7 8c 07 3d
       -0.029705191 0.011926118 0.010311592 0.0330933
000280 8b 3a 0c 3d fc 1c c8 ba 6a 7b ba ba e1 ec 29 3d
       0.03423552 -0.0015267427 -0.0014227454 0.04148567
000290 b3 bc 2c 3d 2f fd a1 3c 2f f0 38 3c 31 44 ad 3b
       0.042172145 0.019774048 0.011287733 0.00528767
0002a0 b6 2a ba 3c be c3 4a bc e5 40 52 bc f2 e8 ce 3c
       0.022725444 -0.01237577 -0.012832855 0.025257561
0002b0 51 73 0e bc 20 a7 85 3a 2f 92 b1 3c 9e 26 41 bc
       -0.008694486 0.0010196902 0.021676151 -0.011788992
0002c0 bf 4c c5 ba 41 63 99 3c 07 08 a2 bc 85 2b ca 3c
       -0.0015052779 0.018724086 -0.019779218 0.024678955
0002d0 35 e9 17 3b fe 6f e0 bc de 49 da 3c e2 f2 ff 3c
       0.0023179774 -0.027397152 0.02664655 0.031243745
0002e0 16 33 32 bb e8 87 9c 3c 46 f7 b4 3c 00 c5 84 bb
       -0.0027191094 0.019107774 0.022090565 -0.0040518045
0002f0 b6 44 35 3c 70 c5 c9 b7 0a 69 b4 bc a0 cb 87 bb
       0.011063745 -2.4053006e-05 -0.022022743 -0.004144147
000300 0b 15 3a bc d3 d3 e2 bc 72 0d 06 3c dc 5c e4 bc
       -0.011357556 -0.027688896 0.008181917 -0.02787631
000310 6d 6e 1f bc 88 d6 85 bc f9 62 c4 bb 5f 5f d4 bc
       -0.009730917 -0.016337648 -0.005993244 -0.025924383
000320 fa 81 91 3c a8 22 9b bc 0c ee a3 bc 1e 17 c7 bc
       0.017762173 -0.018937424 -0.02001097 -0.024303015
000330 e4 56 28 3c 1a ee bd bc 06 eb 16 3c c7 ec 59 bb
       0.010274623 -0.023184825 0.009211307 -0.0033252703
000340 d1 bd f5 bc 0c 8d a6 3c e0 6b 01 3d 7a f5 9c ba
       -0.029997738 0.020330928 0.03159702 -0.0011975013
000350 58 fa 1b bd 59 01 9b bb 9b 50 06 3c 1e 6b b8 bc
       -0.038080543 -0.0047303853 0.008197929 -0.022512015
000360 44 66 15 3d 6e 6d 2a 3b a5 52 7a bc c6 6a 54 bc
       0.03647448 0.0026005167 -0.015278493 -0.01296491
000370 95 d0 b9 3c 75 9c 28 bc 3f ec 13 bc 7c 4d c9 3c
       0.022682467 -0.0102912085 -0.009028493 0.02457308
000380 09 93 15 bc 34 69 93 3c d4 af e4 bb cb c3 1a 3d
       -0.009129294 0.0179945 -0.006978968 0.03778438
000390 d3 d8 cf bc 1e 62 b5 3c 3e 2f e2 3c 2e 8e 16 3d
       -0.025371945 0.022141512 0.027610417 0.036756687
0003a0 0b 16 b2 bc 5e 5b 1d 3d e1 0a e1 bb 0a bb 28 3b
       -0.021739027 0.038417213 -0.006867752 0.002574625
0003b0 05 aa 71 bc 8c 7d 2d 3d ba c5 8e 3c 95 9d 0e 3a
       -0.0147500085 0.04235606 0.017428268 0.00054403517
0003c0 81 1f 13 3c 54 f9 4c bb df 49 6c bb 3f db 96 bc
       0.008979679 -0.003127654 -0.0036054773 -0.018415092
0003d0 3b b8 cb 3c a1 fe 16 3d 44 2b e6 3c 34 1f ce 3c
       0.024868121 0.036863927 0.028096803 0.025161363
0003e0 25 d4 dc bc 2b 94 22 bb 63 93 82 3c 80 46 e8 3c
       -0.026956627 -0.0024807553 0.01593942 0.02835393
0003f0 6d f9 1a 3d f4 4e c6 bc 4c 3d d9 bc b1 fe 90 3c
       0.037835527 -0.02420757 -0.026518486 0.017699571

layers.0.bias f4 [32]
000000 84 20 10 bd d7 2a 1a bc 5e 88 d0 bc 02 6d 26 3d
       -0.03518726 -0.009409628 -0.02545565 0.0406313
000010 db e9 3e 3c da aa 58 bc cd 70 28 3b e3 fa bf bc
       0.011652435 -0.013224328 0.0025702 -0.023435062
000020 d0 e0 cf bb e8 c6 17 bc 1b 85 92 bc 78 70 b2 3c
       -0.0063439384 -0.009263732 -0.017885735 0.021782145
000030 ac 82 9b 3c fd 3c d0 3c 09 29 fb 3b a2 53 28 bd
       0.018983208 0.025419706 0.007664804 -0.041095383
000040 92 26 46 3d 8d be da 3c 83 32 c5 bb a6 a7 b2 3b
       0.048376627 0.02670219 -0.0060179844 0.005452114
000050 cb 68 8a 3c 77 0f 46 3c aa 2c e6 3c 3a 7e cc bc
       0.016895672 0.012088648 0.02809747 -0.024962533
000060 5b e3 ec 3c 17 86 a3 bc 8a 38 b4 bc d5 3b 1b bd
       0.028917005 -0.0199614 -0.021999616 -0.037898857
000070 ae 8c df 3c dc 59 11 3d d9 d7 79 3c 01 a4 f5 bc
       0.027288761 0.035486087 0.015249216 -0.02998543

layers.2.weight f4 [10, 32]
000000 f4 0d 2a 3d 7a 54 0f bd 14 14 db bd 8f bc ea 3d
       0.041517213 -0.034992673 -0.10697189 0.11461746
000010 c1 3a 07 bf cf 8d 39 3e f0 f8 d2 3c 4f 58 d8 3d
       -0.52824026 0.18120502 0.025753468 0.105637185
000020 a5 30 23 3e 9c ff 99 3c 21 b7 15 bd f9 88 a2 3d
       0.15936525 0.018798642 -0.0365516 0.07936282
000030 39 50 22 be a3 e3 dd 3c 37 94 d4 3d 9d 48 82 bd
       -0.15850915 0.027086085 0.10379832 -0.06361506
000040 14 f1 43 3e 1b 3e b7 bd ea ba ff bd b0 09 f9 3d
       0.19134933 -0.089473926 -0.12486823 0.12160051
000050 bb 1a 8a 3d f2 3b 09 3e 52 f5 69 be 00 ae eb 3d
       0.0674338 0.13401774 -0.22847489 0.11507797
000060 d3 2a c9 3b d4 9b cb be 01 03 43 3e 1a 88 fb be
       0.0061391382 -0.39767325 0.19044115 -0.49127275
000070 95 94 5c 3d 81 65 87 3e 2e 47 69 3d 25 c6 12 3e
       0.053852636 0.2644463 0.056952648 0.14333399
000080 9d fc b7 3d b2 20 b7 3d a1 31 fa be e4 a5 94 be
       0.08983729 0.08941783 -0.4886599 -0.29032815
000090 46 76 d2 3d 0f 18 a3 3d 8d 7d 1a be 47 e2 29 3e
       0.10276465 0.07963573 -0.15086956 0.16590224
0000a0 d3 78 15 be d4 cc bc bd d5 78 5e 3e 6f f9 01 3e
       -0.14596872 -0.09218755 0.21725781 0.12692808
0000b0 0b 2b 71 bd 52 c8 f6 bd 68 14 e1 bd 33 7e 13 bf
       -0.05887894 -0.12049927 -0.1099022 -0.5761444
0000c0 b6 3b b4 bd 98 57 f5 bd d8 37 c1 3c 4f 12 09 3e
       -0.088004515 -0.11979598 0.023586199 0.1338589
0000d0 8f 0d c1 3d d1 75 05 bb 48 0b 3c be 89 8e cb 3d
       0.09426414 -0.0020364414 -0.18363678 0.09939296
0000e0 97 fb 6a bd 97 bd 55 3e d4 01 54 3e b7 3a 47 3e
       -0.05736884 0.20873104 0.20703822 0.19455992
0000f0 fd 41 c7 3d bc 5c 4d be 9e 0f c9 3d e1 10 67 bc
       0.09729383 -0.20054907 0.09817432 -0.014103145
000100 6d 0b e5 bd a5 10 1a 3d 48 f0 71 be 52 6a bc bd
       -0.1118382 0.03761353 -0.23626816 -0.091999665
000110 ff 50 9e 3c 85 a2 3f 3c f0 90 8e bd 56 2f cf 3d
       0.019325731 0.0116964625 -0.069612384 0.101164505
000120 ca 1b 0f 3c 3d f0 8f bd 52 94 09 3e 79 dc 1e 3e
       0.008734653 -0.07028244 0.13435486 0.15513791
000130 5b ed 35 bd d5 c4 12 3e e2 ea 8f 3d 34 92 c7 3d
       -0.044415813 0.14332898 0.07027222 0.09744683
000140 86 5b 4b 3e 25 35 a0 bd 3c ce 25 be 23 a5 7f 3c
       0.19859132 -0.078226365 -0.16191953 0.0156033365
000150 1c 63 dc 3d 59 0f 63 3e d8 67 80 be 61 35 85 bd
       0.10761091 0.22173823 -0.25079226 -0.06504322
000160 11 11 a6 bd 57 6c bf be c2 04 44 bd 33 93 c6 3e
       -0.08108724 -0.37387344 -0.0478561 0.3878418
000170 10 62 ea 3d 46 28 e2 3d af 9a 17 3e 28 ea b3 bd
       0.11444485 0.11042838 0.14805101 -0.08784896
000180 60 74 74 3d 17 21 f5 3d 41 a4 84 be c2 4a 56 be
       0.059681296 0.11969202 -0.25906566 -0.20926955
000190 ef f1 95 3d 35 e5 1d be ee fa e3 bd ea 5b 91 bb
       0.07321536 -0.15419467 -0.111318454 -0.004436006
0001a0 db 20 ff bd 84 08 33 be f1 2b 7f bd 0c 70 49 bd
       -0.124574386 -0.17483717 -0.062297765 -0.04917912
0001b0 78 33 ac 3d 6c 89 01 3d 71 64 a1 3e e8 7b 24 bd
       0.084082544 0.031625196 0.31521943 -0.04015723
0001c0 86 8b 5f bd 8e 99 00 be e5 b5 52 bd a5 ad d4 bc
       -0.05457642 -0.12558576 -0.051443 -0.025961706
0001d0 40 38 a1 bb 00 a6 9f 3e bb bb a9 3e 08 4a 58 bd
       -0.0049200356 0.31181335 0.3315104 -0.052804977
0001e0 fc 0a 6c 3d 58 10 07 be f7 c4 5f 3e b0 3a 0f 3d
       0.057627663 -0.13189828 0.2185248 0.034968078
0001f0 3f 74 fe bc f7 69 89 be 7d 90 2b be 9a bb 0c be
       -0.03106129 -0.26838657 -0.16754337 -0.1374344
000200 6f ea 92 39 13 8c 0e 3e 54 af 7b 3e 34 98 c0 bd
       0.00028021957 0.13920622 0.24578601 -0.094040304
000210 ee c1 0c 3e d9 a4 28 3e b7 15 33 be 38 db 0d 3d
       0.13745853 0.16469134 -0.17488752 0.03463289
000220 d4 49 29 3c 24 36 fc bd 6d d0 55 be 18 1a 89 3d
       0.010332543 -0.12315014 -0.2088029 0.0669443
000230 3e 9b b4 bd f0 d7 c7 bd a1 24 bf be 16 fa 31 3c
       -0.088186726 -0.09757984 -0.37332633 0.010862848
000240 0d e7 5f bf 24 5b 1d 3e 04 27 01 3e dc 1d cb 3d
       -0.8746193 0.15366799 0.1261254 0.099178046
000250 47 84 1f 3d 48 08 00 bf 0a 9c c2 3d 83 31 0a be
       0.03894451 -0.50012636 0.09502418 -0.1349545
000260 91 ce 1e 3e cf af a7 3c 52 e3 a6 be 80 5a a2 be
       0.15508486 0.020469574 -0.32595307 -0.3170967
000270 d4 10 03 3e a0 82 96 3d f9 f7 e1 3d 40 3c 75 3d
       0.12799388 0.073491335 0.11033625 0.059871912
000280 a4 c2 84 3d e1 8c e4 bd 21 07 4f bc 3d c7 26 3d
       0.06482437 -0.11159683 -0.012635977 0.040717352
000290 03 c6 13 be a4 b3 ab 3d b2 d7 19 3e 73 fe 03 be
       -0.14431004 0.08383873 0.15023687 -0.12890033
0002a0 79 f1 1b 3e 98 58 b5 bd ad 98 cf 3d 32 df 06 3d
       0.15228833 -0.088547885 0.101365425 0.0329277
0002b0 5d 24 e2 bd 40 26 e4 bd 0e 3c 95 3d 98 9a 5e be
       -0.11042092 -0.11140108 0.07286845 -0.2173866
0002c0 3c 1b 93 3e 97 13 6c bd 0d 97 95 bd 9d 12 e0 3b
       0.28731716 -0.05763587 -0.07304201 0.0068381564
0002d0 2b eb f3 3d 5a 98 c0 be 0d 2c 87 3e 04 e0 05 3d
       0.11910089 -0.37616235 0.26400796 0.03268434
0002e0 94 17 2c 3e 1b 37 95 ba 4b 07 1b 3c ce b7 80 be
       0.1680587 -0.001138422 0.009462188 -0.25140232
0002f0 c0 53 09 3e ae f6 29 3e a3 f1 83 3a 6c 36 33 be
       0.13410854 0.16598007 0.001006652 -0.17501229
000300 7b bc 92 bd 9e 6f 28 3d 12 31 37 be 20 30 52 3e
       -0.07164856 0.04112207 -0.17889813 0.2052617
000310 30 13 13 3d e0 7c 89 bd 4c 40 25 3e 60 c9 10 bc
       0.03590697 -0.06713271 0.16137809 -0.008837074
000320 8d 34 d0 bd db 0a b2 3c a2 cb 63 3e 08 8f 1d 3d
       -0.10166273 0.021733692 0.22245649 0.038466483
000330 7b bf 84 bd 13 b2 03 3e ab 94 37 bf fb 81 62 3e
       -0.064818345 0.12860899 -0.71711224 0.22119896
000340 92 ea e6 bd 15 99 4d 3d 36 65 dd 3a 61 2b 06 3e
       -0.112752095 0.05019482 0.0016891125 0.13102485
000350 8a 77 72 3c e3 e1 e2 be 6a 2a 88 be a8 41 aa 3c
       0.014799008 -0.44312963 -0.2659486 0.02078326
000360 aa 59 a8 3d ef 42 97 be f7 6a 8f 3d 48 b6 47 bb
       0.08220227 -0.29543254 0.07002824 -0.0030473638
000370 5e a3 cd 3d db 81 eb bc f4 2b f7 bc 2e 41 19 be
       0.100409254 -0.028748443 -0.030172326 -0.1496627
000380 2c f4 12 3e a7 7a 25 be 96 45 03 3e a8 76 b1 be
       0.14350957 -0.1616007 0.12819514 -0.3466084
000390 88 4c 57 be e3 cf 6e 3d 50 8c 09 be 12 7f b6 bb
       -0.21025288 0.058303725 -0.13432431 -0.005569347
0003a0 b3 0e 1e be 40 6d 5e bc 32 2d 80 be 25 21 78 3b
       -0.15435295 -0.013575852 -0.2503448 0.0037861553
0003b0 fe c8 b6 bd f1 81 0d 3e bf 03 6c 3e 08 cd fa bc
       -0.08925055 0.138191 0.23048304 -0.030615345
0003c0 e4 ad 0a 3d 43 e0 82 bd 5e 3c b1 bd 7e af 0b 3e
       0.03385724 -0.06390431 -0.08654092 0.13641164
0003d0 04 4b 15 be 56 1e 43 3e a8 b9 da be 6b 58 df 3d
       -0.14579397 0.19054541 -0.4271977 0.10905536
0003e0 7a 76 1e bd 57 39 15 3e 83 fd 2a 3e 96 1b 42 3e
       -0.038687207 0.14572655 0.1669827 0.18955836
0003f0 e8 a6 bc bd aa a2 c8 be c4 02 07 3e 6c 93 0b bd
       -0.09211522 -0.39186603 0.13184649 -0.03407614

layers.2.bias f4 [10]
000000 d4 49 47 be 3d 5a 1f bd a4 1d 81 be e8 8a 85 3c
       -0.19461757 -0.038904417 -0.25217927 0.016301587
000010 33 69 66 3e 2c 52 e4 bd ff 7a d1 bd b0 d2 2a bd
       0.22501068 -0.111484855 -0.10228538 -0.041704834
000020 3b ba 89 3e 37 b5 56 3e
       0.26899895 0.20967565

exp_avg f4 [32, 784]
000000 04 00 00 80 04 00 00 80 04 00 00 80 04 00 00 80
       -6e-45 -6e-45 -6e-45 -6e-45
000010 04 00 00 80 04 00 00 80 04 00 00 80 04 00 00 80
       -6e-45 -6e-45 -6e-45 -6e-45
000020 04 00 00 80 04 00 00 80 04 00 00 80 04 00 00 80
       -6e-45 -6e-45 -6e-45 -6e-45
000030 04 00 00 80 04 00 00 80 04 00 00 80 04 00 00 80
       -6e-45 -6e-45 -6e-45 -6e-45
000040 04 00 00 80 04 00 00 80 04 00 00 80 04 00 00 80
       -6e-45 -6e-45 -6e-45 -6e-45
000050 04 00 00 80 04 00 00 80 04 00 00 80 04 00 00 80
       -6e-45 -6e-45 -6e-45 -6e-45
000060 04 00 00 80 04 00 00 80 04 00 00 80 04 00 00 80
       -6e-45 -6e-45 -6e-45 -6e-45
000070 04 00 00 80 04 00 00 80 04 00 00 80 04 00 00 80
       -6e-45 -6e-45 -6e-45 -6e-45
000080 04 00 00 80 04 00 00 80 04 00 00 80 04 00 00 80
       -6e-45 -6e-45 -6e-45 -6e-45
000090 04 00 00 80 04 00 00 80 04 00 00 80 04 00 00 80
       -6e-45 -6e-45 -6e-45 -6e-45
0000a0 04 00 00 80 04 00 00 80 04 00 00 80 04 00 00 80
       -6e-45 -6e-45 -6e-45 -6e-45
0000b0 04 00 00 80 04 00 00 80 04 00 00 80 04 00 00 80
       -6e-45 -6e-45 -6e-45 -6e-45
0000c0 04 00 00 80 04 00 00 80 04 00 00 80 04 00 00 80
       -6e-45 -6e-45 -6e-45 -6e-45
0000d0 04 00 00 80 04 00 00 80 04 00 00 80 04 00 00 80
       -6e-45 -6e-45 -6e-45 -6e-45
0000e0 04 00 00 80 04 00 00 80 04 00 00 80 04 00 00 80
       -6e-45 -6e-45 -6e-45 -6e-45
0000f0 04 00 00 80 04 00 00 80 04 00 00 80 04 00 00 80
       -6e-45 -6e-45 -6e-45 -6e-45
000100 04 00 00 80 04 00 00 80 04 00 00 80 04 00 00 80
       -6e-45 -6e-45 -6e-45 -6e-45
000110 04 00 00 80 04 00 00 80 04 00 00 80 04 00 00 80
       -6e-45 -6e-45 -6e-45 -6e-45
000120 04 00 00 80 04 00 00 80 04 00 00 80 04 00 00 80
       -6e-45 -6e-45 -6e-45 -6e-45
000130 04 00 00 80 04 00 00 80 04 00 00 80 04 00 00 80
       -6e-45 -6e-45 -6e-45 -6e-45
000140 04 00 00 80 04 00 00 80 04 00 00 80 04 00 00 80
       -6e-45 -6e-45 -6e-45 -6e-45
000150 04 00 00 80 04 00 00 80 04 00 00 80 04 00 00 80
       -6e-45 -6e-45 -6e-45 -6e-45
000160 04 00 00 80 04 00 00 80 04 00 00 80 04 00 00 80
       -6e-45 -6e-45 -6e-45 -6e-45
000170 04 00 00 80 04 00 00 80 04 00 00 80 04 00 00 80
       -6e-45 -6e-45 -6e-45 -6e-45
000180 04 00 00 80 04 00 00 80 04 00 00 80 04 00 00 00
       -6e-45 -6e-45 -6e-45 6e-45
000190 04 00 00 00 04 00 00 00 04 00 00 80 04 00 00 80
       6e-45 6e-45 -6e-45 -6e-45
0001a0 04 00 00 80 04 00 00 80 04 00 00 80 04 00 00 80
       -6e-45 -6e-45 -6e-45 -6e-45
0001b0 04 00 00 80 04 00 00 80 04 00 00 80 04 00 00 80
       -6e-45 -6e-45 -6e-45 -6e-45
0001c0 04 00 00 80 04 00 00 80 04 00 00 80 04 00 00 80
       -6e-45 -6e-45 -6e-45 -6e-45
0001d0 04 00 00 80 04 00 00 80 04 00 00 80 04 00 00 80
       -6e-45 -6e-45 -6e-45 -6e-45
0001e0 04 00 00 80 04 00 00 80 04 00 00 80 04 00 00 00
       -6e-45 -6e-45 -6e-45 6e-45
0001f0 04 00 00 00 04 00 00 00 04 00 00 80 04 00 00 00
       6e-45 6e-45 -6e-45 6e-45
000200 04 00 00 80 04 00 00 80 04 00 00 80 04 00 00 80
       -6e-45 -6e-45 -6e-45 -6e-45
000210 04 00 00 80 04 00 00 80 04 00 00 80 04 00 00 80
       -6e-45 -6e-45 -6e-45 -6e-45
000220 04 00 00 80 04 00 00 80 04 00 00 80 04 00 00 80
       -6e-45 -6e-45 -6e-45 -6e-45
000230 04 00 00 80 04 00 00 80 04 00 00 80 04 00 00 80
       -6e-45 -6e-45 -6e-45 -6e-45
000240 04 00 00 80 04 00 00 80 04 00 00 80 04 00 00 80
       -6e-45 -6e-45 -6e-45 -6e-45
000250 04 00 00 80 04 00 00 80 04 00 00 00 04 00 00 00
       -6e-45 -6e-45 6e-45 6e-45
000260 04 00 00 00 04 00 00 80 04 00 00 80 04 00 00 80
       6e-45 -6e-45 -6e-45 -6e-45
000270 04 00 00 00 04 00 00 80 04 00 00 80 04 00 00 80
       6e-45 -6e-45 -6e-45 -6e-45
000280 04 00 00 80 04 00 00 80 04 00 00 80 04 00 00 80
       -6e-45 -6e-45 -6e-45 -6e-45
000290 04 00 00 80 04 00 00 80 04 00 00 80 04 00 00 80
       -6e-45 -6e-45 -6e-45 -6e-45
0002a0 04 00 00 80 04 00 00 80 04 00 00 80 04 00 00 80
       -6e-45 -6e-45 -6e-45 -6e-45
0002b0 04 00 00 80 04 00 00 80 04 00 00 80 04 00 00 80
       -6e-45 -6e-45 -6e-45 -6e-45
0002c0 04 00 00 80 04 00 00 80 04 00 00 00 04 00 00 00
       -6e-45 -6e-45 6e-45 6e-45
0002d0 04 00 00 80 04 00 00 80 04 00 00 80 04 00 00 80
       -6e-45 -6e-45 -6e-45 -6e-45
0002e0 04 00 00 00 04 00 00 00 04 00 00 80 04 00 00 80
       6e-45 6e-45 -6e-45 -6e-45
0002f0 04 00 00 80 04 00 00 80 04 00 00 80 04 00 00 80
       -6e-45 -6e-45 -6e-45 -6e-45
000300 04 00 00 80 04 00 00 80 04 00 00 80 04 00 00 80
       -6e-45 -6e-45 -6e-45 -6e-45
000310 04 00 00 80 04 00 00 80 04 00 00 80 04 00 00 80
       -6e-45 -6e-45 -6e-45 -6e-45
000320 04 00 00 80 04 00 00 80 04 00 00 80 04 00 00 80
       -6e-45 -6e-45 -6e-45 -6e-45
000330 04 00 00 80 04 00 00 80 04 00 00 80 04 00 00 80
       -6e-45 -6e-45 -6e-45 -6e-45
000340 04 00 00 80 04 00 00 80 04 00 00 80 04 00 00 80
       -6e-45 -6e-45 -6e-45 -6e-45
000350 04 00 00 00 04 00 00 00 04 00 00 80 04 00 00 80
       6e-45 6e-45 -6e-45 -6e-45
000360 04 00 00 80 04 00 00 80 04 00 00 80 04 00 00 80
       -6e-45 -6e-45 -6e-45 -6e-45
000370 04 00 00 80 04 00 00 80 04 00 00 80 04 00 00 80
       -6e-45 -6e-45 -6e-45 -6e-45
000380 04 00 00 80 04 00 00 80 04 00 00 80 04 00 00 80
       -6e-45 -6e-45 -6e-45 -6e-45
000390 04 00 00 80 04 00 00 80 04 00 00 80 04 00 00 80
       -6e-45 -6e-45 -6e-45 -6e-45
0003a0 04 00 00 80 04 00 00 80 04 00 00 80 04 00 00 80
       -6e-45 -6e-45 -6e-45 -6e-45
0003b0 04 00 00 80 04 00 00 80 04 00 00 80 04 00 00 80
       -6e-45 -6e-45 -6e-45 -6e-45
0003c0 04 00 00 80 04 00 00 80 04 00 00 80 04 00 00 80
       -6e-45 -6e-45 -6e-45 -6e-45
0003d0 04 00 00 80 04 00 00 80 04 00 00 80 04 00 00 80
       -6e-45 -6e-45 -6e-45 -6e-45
0003e0 04 00 00 80 04 00 00 80 04 00 00 80 04 00 00 80
       -6e-45 -6e-45 -6e-45 -6e-45
0003f0 04 00 00 80 04 00 00 80 04 00 00 80 04 00 00 80
       -6e-45 -6e-45 -6e-45 -6e-45

exp_avg_sq f4 [32, 784]
000000 64 7f 75 27 64 7f 75 27 64 7f 75 27 64 7f 75 27
       3.4069639e-15 3.4069639e-15 3.4069639e-15 3.4069639e-15
000010 64 7f 75 27 64 7f 75 27 64 7f 75 27 64 7f 75 27
       3.4069639e-15 3.4069639e-15 3.4069639e-15 3.4069639e-15
000020 64 7f 75 27 64 7f 75 27 64 7f 75 27 64 7f 75 27
       3.4069639e-15 3.4069639e-15 3.4069639e-15 3.4069639e-15
000030 64 7f 75 27 64 7f 75 27 64 7f 75 27 64 7f 75 27
       3.4069639e-15 3.4069639e-15 3.4069639e-15 3.4069639e-15
000040 64 7f 75 27 64 7f 75 27 64 7f 75 27 64 7f 75 27
       3.4069639e-15 3.4069639e-15 3.4069639e-15 3.4069639e-15
000050 64 7f 75 27 64 7f 75 27 64 7f 75 27 64 7f 75 27
       3.4069639e-15 3.4069639e-15 3.4069639e-15 3.4069639e-15
000060 64 7f 75 27 64 7f 75 27 64 7f 75 27 64 7f 75 27
       3.4069639e-15 3.4069639e-15 3.4069639e-15 3.4069639e-15
000070 64 7f 75 27 64 7f 75 27 64 7f 75 27 64 7f 75 27
       3.4069639e-15 3.4069639e-15 3.4069639e-15 3.4069639e-15
000080 64 7f 75 27 64 7f 75 27 64 7f 75 27 64 7f 75 27
       3.4069639e-15 3.4069639e-15 3.4069639e-15 3.4069639e-15
000090 64 7f 75 27 64 7f 75 27 64 7f 75 27 64 7f 75 27
       3.4069639e-15 3.4069639e-15 3.4069639e-15 3.4069639e-15
0000a0 64 7f 75 27 64 7f 75 27 64 7f 75 27 64 7f 75 27
       3.4069639e-15 3.4069639e-15 3.4069639e-15 3.4069639e-15
0000b0 64 7f 75 27 64 7f 75 27 64 7f 75 27 64 7f 75 27
       3.4069639e-15 3.4069639e-15 3.4069639e-15 3.4069639e-15
0000c0 64 7f 75 27 64 7f 75 27 64 7f 75 27 64 7f 75 27
       3.4069639e-15 3.4069639e-15 3.4069639e-15 3.4069639e-15
0000d0 64 7f 75 27 64 7f 75 27 64 7f 75 27 64 7f 75 27
       3.4069639e-15 3.4069639e-15 3.4069639e-15 3.4069639e-15
0000e0 64 7f 75 27 64 7f 75 27 64 7f 75 27 64 7f 75 27
       3.4069639e-15 3.4069639e-15 3.4069639e-15 3.4069639e-15
0000f0 64 7f 75 27 64 7f 75 27 64 7f 75 27 64 7f 75 27
       3.4069639e-15 3.4069639e-15 3.4069639e-15 3.4069639e-15
000100 64 7f 75 27 64 7f 75 27 64 7f 75 27 64 7f 75 27
       3.4069639e-15 3.4069639e-15 3.4069639e-15 3.4069639e-15
000110 47 70 b9 26 47 ff 31 27 64 7f 75 27 3c 2f 58 27
       1.2867387e-15 2.470207e-15 3.4069639e-15 3.0001627e-15
000120 6f 77 14 26 56 13 d7 25 20 ad 59 27 64 7f 75 27
       5.150968e-16 3.7309657e-16 3.020865e-15 3.4069639e-15
000130 64 7f 75 27 64 7f 75 27 64 7f 75 27 64 7f 75 27
       3.4069639e-15 3.4069639e-15 3.4069639e-15 3.4069639e-15
000140 64 7f 75 27 64 7f 75 27 64 7f 75 27 64 7f 75 27
       3.4069639e-15 3.4069639e-15 3.4069639e-15 3.4069639e-15
000150 64 7f 75 27 64 7f 75 27 64 7f 75 27 64 7f 75 27
       3.4069639e-15 3.4069639e-15 3.4069639e-15 3.4069639e-15
000160 64 7f 75 27 64 7f 75 27 64 7f 75 27 aa 3d 72 27
       3.4069639e-15 3.4069639e-15 3.4069639e-15 3.3617675e-15
000170 de ea 80 27 8a 8b 88 27 f4 71 85 27 7f 71 47 27
       3.578178e-15 3.789887e-15 3.7038464e-15 2.7678324e-15
000180 c0 5b aa 25 6f 92 31 26 74 e0 b9 25 25 92 8f 26
       2.955247e-16 6.1607666e-16 3.224448e-16 9.962231e-16
000190 e7 3f 16 27 05 d9 8a 26 5c 81 d6 26 14 23 72 27
       2.0851323e-15 9.634497e-16 1.4884296e-15 3.3603262e-15
0001a0 c7 88 87 27 b5 37 87 27 f9 bf 7c 27 26 d3 80 27
       3.761832e-15 3.7530425e-15 3.5076094e-15 3.5756064e-15
0001b0 64 7f 75 27 64 7f 75 27 64 7f 75 27 64 7f 75 27
       3.4069639e-15 3.4069639e-15 3.4069639e-15 3.4069639e-15
0001c0 64 7f 75 27 64 7f 75 27 64 7f 75 27 64 7f 75 27
       3.4069639e-15 3.4069639e-15 3.4069639e-15 3.4069639e-15
0001d0 64 7f 75 27 64 7f 75 27 28 32 5f 27 48 c5 c1 26
       3.4069639e-15 3.4069639e-15 3.0974657e-15 1.3445538e-15
0001e0 c7 13 d3 25 99 ae af 25 d9 a5 21 26 07 bd 3a 27
       3.6616067e-16 3.0475973e-16 5.608286e-16 2.5915157e-15
0001f0 09 9e 70 27 38 1f 07 27 63 73 2e 26 4e 36 44 26
       3.3392362e-15 1.8751937e-15 6.0524755e-16 6.8074757e-16
000200 26 64 c9 25 de 3a 3c 26 e3 50 58 27 ff af ac 27
       3.4935805e-16 6.530538e-16 3.001987e-15 4.7930405e-15
000210 1c 3e 8f 27 ea 5e 91 27 d7 71 7c 27 64 7f 75 27
       3.9757812e-15 4.034849e-15 3.5033738e-15 3.4069639e-15
000220 64 7f 75 27 64 7f 75 27 64 7f 75 27 64 7f 75 27
       3.4069639e-15 3.4069639e-15 3.4069639e-15 3.4069639e-15
000230 64 7f 75 27 64 7f 75 27 64 7f 75 27 64 7f 75 27
       3.4069639e-15 3.4069639e-15 3.4069639e-15 3.4069639e-15
000240 64 7f 75 27 64 7f 75 27 12 23 8e 26 12 12 b5 25
       3.4069639e-15 3.4069639e-15 9.862735e-16 3.141074e-16
000250 12 12 b5 25 d5 e3 d0 25 59 44 48 27 e1 3d f5 27
       3.141074e-16 3.6236633e-16 2.7792627e-15 6.806825e-15
000260 4c 40 4a 27 90 c6 1c 26 58 72 58 26 b2 d0 bb 25
       2.8067987e-15 5.4392475e-16 7.509502e-16 3.2580746e-16
000270 4d 29 b7 23 7c d8 dc 26 2b 46 92 27 97 9c 1d 28
       1.9858391e-17 1.5324245e-15 4.0599217e-15 8.749206e-15
000280 23 a1 94 27 64 7f 75 27 64 7f 75 27 64 7f 75 27
       4.1252957e-15 3.4069639e-15 3.4069639e-15 3.4069639e-15
000290 64 7f 75 27 64 7f 75 27 64 7f 75 27 64 7f 75 27
       3.4069639e-15 3.4069639e-15 3.4069639e-15 3.4069639e-15
0002a0 64 7f 75 27 64 7f 75 27 64 7f 75 27 64 7f 75 27
       3.4069639e-15 3.4069639e-15 3.4069639e-15 3.4069639e-15
0002b0 64 7f 75 27 64 7f 75 27 12 23 8e 26 2a bf bd 25
       3.4069639e-15 3.4069639e-15 9.862735e-16 3.2915812e-16
0002c0 6c 27 b1 26 6f 30 f6 25 8f dc 07 27 2b f2 57 26
       1.2292528e-15 4.2707017e-16 1.8854579e-15 7.492131e-16
0002d0 b2 fc bd 25 f0 9e d6 25 9d d7 fb 25 1d ca fb 24
       3.2957507e-16 3.7230783e-16 4.3687664e-16 1.0919629e-16
0002e0 46 28 83 25 23 27 98 25 5a 1d ae 26 6c 80 d1 27
       2.2752168e-16 2.6394317e-16 1.2081631e-15 5.814839e-15
0002f0 cb 59 8b 27 64 7f 75 27 64 7f 75 27 64 7f 75 27
       3.8677604e-15 3.4069639e-15 3.4069639e-15 3.4069639e-15
000300 64 7f 75 27 64 7f 75 27 64 7f 75 27 64 7f 75 27
       3.4069639e-15 3.4069639e-15 3.4069639e-15 3.4069639e-15
000310 64 7f 75 27 64 7f 75 27 64 7f 75 27 64 7f 75 27
       3.4069639e-15 3.4069639e-15 3.4069639e-15 3.4069639e-15
000320 64 7f 75 27 64 7f 75 27 cf 76 c9 26 a2 f5 65 26
       3.4069639e-15 3.4069639e-15 1.397938e-15 7.978323e-16
000330 e8 48 a5 27 58 29 08 28 50 25 0a 27 03 13 81 27
       4.5875745e-15 7.5584816e-15 1.9171574e-15 3.5825305e-15
000340 98 90 b7 25 33 82 82 26 de af a8 27 b6 52 7f 27
       3.184342e-16 9.055853e-16 4.6820043e-15 3.5433197e-15
000350 d8 55 a6 25 92 e7 45 24 77 8f 3b 26 dc db 60 26
       2.885458e-16 4.2913713e-17 6.507309e-16 7.8013577e-16
000360 73 1f 71 27 64 7f 75 27 64 7f 75 27 44 4b 95 27
       3.3462517e-15 3.4069639e-15 3.4069639e-15 4.143741e-15
000370 00 22 8c 27 64 7f 75 27 64 7f 75 27 64 7f 75 27
       3.889467e-15 3.4069639e-15 3.4069639e-15 3.4069639e-15
000380 64 7f 75 27 64 7f 75 27 64 7f 75 27 64 7f 75 27
       3.4069639e-15 3.4069639e-15 3.4069639e-15 3.4069639e-15
000390 64 7f 75 27 64 7f 75 27 64 7f 75 27 c6 54 8b 27
       3.4069639e-15 3.4069639e-15 3.4069639e-15 3.867216e-15
0003a0 fc 5d 21 28 61 07 02 28 50 25 91 27 a6 1a be 27
       8.957675e-15 7.21805e-15 4.028604e-15 5.2764486e-15
0003b0 c8 ea b7 27 20 d2 ab 27 3b f7 5a 28 ac e1 59 28
       5.1047254e-15 4.7689852e-15 1.21550405e-14 1.2094855e-14
0003c0 a1 4b b9 26 02 be bc 26 96 33 a9 25 5f 0a df 25
       1.2857453e-15 1.3096622e-15 2.9351783e-16 3.869136e-16
0003d0 63 b0 b9 27 7b 82 01 28 26 9d 00 28 5b 0d 12 28
       5.1539054e-15 7.189232e-15 7.1395035e-15 8.107524e-15
0003e0 ed 3d c6 27 64 7f 75 27 64 7f 75 27 64 7f 75 27
       5.502318e-15 3.4069639e-15 3.4069639e-15 3.4069639e-15
0003f0 64 7f 75 27 64 7f 75 27 64 7f 75 27 64 7f 75 27
       3.4069639e-15 3.4069639e-15 3.4069639e-15 3.4069639e-15

exp_avg f4 [32]
000000 04 00 00 00 04 00 00 00 b5 23 89 bb 27 9a be bb
       6e-45 6e-45 -0.004185165 -0.0058167162
000010 0b 6b 4f 3b 04 00 00 00 04 00 00 00 04 00 00 00
       0.0031649496 6e-45 6e-45 6e-45
000020 04 00 00 00 04 00 00 00 8f 07 e7 ba 04 00 00 00
       6e-45 6e-45 -0.0017626154 6e-45
000030 04 00 00 00 04 00 00 00 c7 f7 9e 3b 7b 11 01 bb
       6e-45 6e-45 0.0048513147 -0.0019694257
000040 3a 8b cd 3a 04 00 00 00 04 00 00 00 04 00 00 00
       0.0015681752 6e-45 6e-45 6e-45
000050 04 00 00 00 bf 80 24 3c 15 f3 5b 3b 04 00 00 00
       6e-45 0.010040461 0.0033561636 6e-45
000060 04 00 00 00 b2 2b b9 ba 5c f7 f7 b9 90 5f 1e 3a
       6e-45 -0.0014127402 -0.00047295808 0.00060414616
000070 04 00 00 00 40 c6 04 bb 04 00 00 00 04 00 00 00
       6e-45 -0.0020259768 6e-45 6e-45

exp_avg_sq f4 [32]
000000 64 7f 75 27 3a ad 27 28 ba 0f 2c 39 8c 14 87 39
       3.4069639e-15 9.307925e-15 0.00016409057 0.00025764515
000010 7d 1b 12 39 10 3e 44 27 76 63 70 29 38 a0 5f 26
       0.00013933885 2.7234108e-15 5.3376974e-14 7.7585804e-16
000020 95 90 fa 25 ac 04 83 25 e3 a2 4e 39 bd ae 96 23
       4.346606e-16 2.2728043e-16 0.00019706371 1.6337037e-17
000030 3a 8d 8b 26 52 54 b4 28 10 17 4b 39 47 d1 08 39
       9.683342e-16 2.0020583e-14 0.0001936818 0.00013047933
000040 67 3d a0 39 22 af de 26 74 b7 16 28 31 9e a2 29
       0.00030563326 1.5451814e-15 8.366453e-15 7.221687e-14
000050 8b 8b 1e 29 9b 4e 97 39 20 69 92 39 18 a5 25 25
       3.5204082e-14 0.0002885953 0.00027925614 1.4367405e-16
000060 5e ef c1 25 14 b3 3b 39 83 1e 35 39 64 f1 63 39
       3.3642365e-16 0.00017900422 0.00017272872 0.00021738332
000070 36 42 1c 29 12 d2 18 39 bc 28 0f 29 4a 48 83 24
       3.4696387e-14 0.00014574107 3.178771e-14 5.6934656e-17

exp_avg f4 [10, 32]
000000 04 00 00 80 04 00 00 80 ec c3 90 3d 2b 0c 83 3c
       -6e-45 -6e-45 0.07068619 0.015997013
000010 c7 a8 4a bb 04 00 00 80 04 00 00 80 04 00 00 00
       -0.0030923353 -6e-45 -6e-45 6e-45
000020 04 00 00 00 04 00 00 80 5d c0 3e bd 04 00 00 00
       6e-45 -6e-45 -0.04657017 6e-45
000030 04 00 00 80 04 00 00 80 a9 77 c8 3c 91 37 45 3b
       -6e-45 -6e-45 0.02447112 0.0030092935
000040 45 46 2f 3c 04 00 00 80 04 00 00 00 04 00 00 00
       0.010697906 -6e-45 6e-45 6e-45
000050 04 00 00 00 25 5a a3 bc bc bf 12 bd 04 00 00 80
       6e-45 -0.019940445 -0.035827383 -6e-45
000060 04 00 00 80 c6 e2 19 bc bf 5a 58 bc 10 9f 8e 38
       -6e-45 -0.009392446 -0.013205229 6.800715e-05
000070 04 00 00 80 57 5d 3c bd 04 00 00 80 04 00 00 00
       -6e-45 -0.045987453 -6e-45 6e-45
000080 04 00 00 80 04 00 00 80 88 39 85 bb 77 3c a3 3c
       -6e-45 -6e-45 -0.004065696 0.019926293
000090 56 75 07 3c 04 00 00 80 04 00 00 00 04 00 00 00
       0.008267721 -6e-45 6e-45 6e-45
0000a0 04 00 00 00 04 00 00 80 37 54 cf bb 04 00 00 00
       6e-45 -6e-45 -0.006327178 6e-45
0000b0 04 00 00 00 04 00 00 00 43 82 e6 bb df 61 aa ba
       6e-45 6e-45 -0.0070345714 -0.0012999139
0000c0 33 c4 59 3b 04 00 00 00 04 00 00 00 04 00 00 00
       0.0033228516 6e-45 6e-45 6e-45
0000d0 04 00 00 80 67 b2 a9 3c ee 91 6d bc 04 00 00 00
       -6e-45 0.020714952 -0.014500124 6e-45
0000e0 04 00 00 00 68 06 5d bc 6c 67 54 bc a0 74 7c bb
       6e-45 -0.013490297 -0.012964111 -0.0038521662
0000f0 04 00 00 00 45 4b 22 bd 04 00 00 00 04 00 00 00
       6e-45 -0.039622564 6e-45 6e-45
000100 04 00 00 80 04 00 00 80 d1 01 9d 3d f9 50 d4 3d
       -6e-45 -6e-45 0.07666362 0.10367007
000110 47 f5 42 3d 04 00 00 80 04 00 00 00 04 00 00 00
       0.047597196 -6e-45 6e-45 6e-45
000120 04 00 00 00 04 00 00 80 7d 1c 70 3d 04 00 00 00
       6e-45 -6e-45 0.05862092 6e-45
000130 04 00 00 80 04 00 00 80 55 60 6e 3c 1e 24 65 3c
       -6e-45 -6e-45 0.0145493345 0.013985662
000140 d9 19 4d 3d 04 00 00 80 04 00 00 80 04 00 00 00
       0.05007348 -6e-45 -6e-45 6e-45
000150 04 00 00 00 c7 0a 8c 3d 7a 94 b6 3c 04 00 00 80
       6e-45 0.06837993 0.022287596 -6e-45
000160 04 00 00 00 83 3d 68 3c f4 4f 08 3d 64 d7 ea 3c
       6e-45 0.014174822 0.033279374 0.02866716
000170 04 00 00 00 43 32 ed 3c 04 00 00 00 04 00 00 80
       6e-45 0.02895463 6e-45 -6e-45
000180 04 00 00 80 04 00 00 00 b8 df 21 3d 05 e1 86 3d
       -6e-45 6e-45 0.039519995 0.06585888
000190 ba 26 95 3d 04 00 00 00 04 00 00 00 04 00 00 00
       0.07282777 6e-45 6e-45 6e-45
0001a0 04 00 00 80 04 00 00 00 2e e1 b2 3d 04 00 00 00
       -6e-45 6e-45 0.08734356 6e-45
0001b0 04 00 00 00 04 00 00 80 d1 4e 93 3d 09 08 f7 3c
       6e-45 -6e-45 0.071927674 0.030155199
0001c0 71 54 5c 3d 04 00 00 00 04 00 00 80 04 00 00 80
       0.053791467 6e-45 -6e-45 -6e-45
0001d0 04 00 00 00 58 95 c2 3d 52 a4 b2 3d 04 00 00 80
       6e-45 0.09501141 0.08722748 -6e-45
0001e0 04 00 00 00 4a e3 c7 3d ec 98 c6 3d 07 33 0a 3d
       6e-45 0.09760149 0.09697136 0.03374007
0001f0 04 00 00 80 e3 42 4d 3d 04 00 00 80 04 00 00 00
       -6e-45 0.050112616 -6e-45 6e-45
000200 04 00 00 00 04 00 00 00 f9 59 50 bd f3 30 a3 bb
       6e-45 6e-45 -0.050867055 -0.0049802004
000210 48 22 8d bd 04 00 00 00 04 00 00 00 04 00 00 00
       -0.06891304 6e-45 6e-45 6e-45
000220 04 00 00 00 04 00 00 00 c4 2b cd ba 04 00 00 00
       6e-45 6e-45 -0.0015653302 6e-45
000230 04 00 00 00 04 00 00 80 0e 6b 30 bd a4 2f 00 bd
       6e-45 -6e-45 -0.043070845 -0.031295434
000240 95 62 0d bb 04 00 00 00 04 00 00 00 04 00 00 00
       -0.0021573652 6e-45 6e-45 6e-45
000250 04 00 00 00 42 c4 a2 ba 92 17 7c bd 04 00 00 00
       6e-45 -0.0012418109 -0.061545916 6e-45
000260 04 00 00 00 87 b5 d2 bd 44 65 92 bc 33 18 b4 3b
       6e-45 -0.1028853 -0.017870553 0.005496049
000270 04 00 00 00 fa 20 89 bc 04 00 00 00 04 00 00 00
       6e-45 -0.016739357 6e-45 6e-45
000280 04 00 00 80 04 00 00 00 ce a6 aa bc 2b 61 65 bd
       -6e-45 6e-45 -0.020831492 -0.05600087
000290 08 e0 86 bd 04 00 00 00 04 00 00 00 04 00 00 00
       -0.06585699 6e-45 6e-45 6e-45
0002a0 04 00 00 00 04 00 00 00 cf f8 3e bd 04 00 00 00
       6e-45 6e-45 -0.046624 6e-45
0002b0 04 00 00 00 04 00 00 80 fb 2c c4 bc c3 8f 69 39
       6e-45 -6e-45 -0.02394723 0.00022274167
0002c0 88 43 4b bd 04 00 00 00 04 00 00 80 04 00 00 80
       -0.04962495 6e-45 -6e-45 -6e-45
0002d0 04 00 00 00 88 df 1b bd d3 79 95 bd 04 00 00 80
       6e-45 -0.038054973 -0.07298627 -6e-45
0002e0 04 00 00 00 2a 41 1f bd b6 e3 9f bd f8 81 bf 3b
       6e-45 -0.038880505 -0.07807104 0.005844351
0002f0 04 00 00 00 df b2 59 bd 04 00 00 80 04 00 00 00
       6e-45 -0.0531491 -6e-45 6e-45
000300 04 00 00 80 04 00 00 80 e8 a9 ae bd 43 6f 65 bd
       -6e-45 -6e-45 -0.08528501 -0.05601431
000310 e3 df 64 bd 04 00 00 80 04 00 00 00 04 00 00 00
       -0.055877578 -6e-45 6e-45 6e-45
000320 04 00 00 80 04 00 00 80 1e d8 96 bd 04 00 00 00
       -6e-45 -6e-45 -0.0736544 6e-45
000330 04 00 00 00 04 00 00 80 c5 4a 30 3a 04 6b 1d bd
       6e-45 -6e-45 0.0006725009 -0.038432136
000340 e8 ea 16 bd 04 00 00 00 04 00 00 80 04 00 00 80
       -0.036845118 6e-45 -6e-45 -6e-45
000350 04 00 00 00 c6 f6 14 bd 8f e9 4a 3b 04 00 00 80
       6e-45 -0.036368154 0.0030961966 -6e-45
000360 04 00 00 00 55 7a 07 3c 77 28 ac bc 33 4a af bb
       6e-45 0.008268912 -0.021015389 -0.0053494214
000370 04 00 00 80 c3 f7 ab bc 04 00 00 00 04 00 00 00
       -6e-45 -0.020992165 6e-45 6e-45
000380 04 00 00 00 04 00 00 80 71 15 7a 3c 12 63 10 bd
       6e-45 -6e-45 0.015263901 -0.03525073
000390 72 bf 84 3c 04 00 00 80 04 00 00 00 04 00 00 80
       0.01620457 -6e-45 6e-45 -6e-45
0003a0 04 00 00 00 04 00 00 00 7b 21 70 3b 04 00 00 00
       6e-45 6e-45 0.003664105 6e-45
0003b0 04 00 00 80 04 00 00 00 76 c6 d4 3b 7d cd 59 3d
       -6e-45 6e-45 0.006493385 0.053174485
0003c0 b7 74 de bc 04 00 00 00 04 00 00 00 04 00 00 00
       -0.027155263 6e-45 6e-45 6e-45
0003d0 04 00 00 80 8b f4 21 bd a1 21 d0 39 04 00 00 00
       -6e-45 -0.039539855 0.00039697907 6e-45
0003e0 04 00 00 00 4c f9 08 bd 9a b7 8d bc 21 9c 39 bd
       6e-45 -0.033440873 -0.017299462 -0.04531491
0003f0 04 00 00 80 e2 54 54 bb 04 00 00 80 04 00 00 00
       -6e-45 -0.0032399227 -6e-45 6e-45

exp_avg_sq f4 [10, 32]
000000 5e 00 87 28 3c 88 08 29 04 0a 7e 3d 18 c4 b3 3d
       1.498817e-14 3.031623e-14 0.06202127 0.08777636
000010 4b 38 c1 3b 1c 86 20 28 53 f5 44 29 b4 36 9d 22
       0.005896603 8.9108645e-15 4.3733527e-14 4.2612854e-18
000020 62 bc 17 23 19 48 d4 25 38 52 cf 3c 91 ba 5b 24
       8.225618e-18 3.6824993e-16 0.02530776 4.7646083e-17
000030 de 69 2e 27 d5 2d ad 27 76 e1 af 3c 9c 47 7c 3c
       2.4204742e-15 4.8066837e-15 0.021469813 0.015397932
000040 60 6c 68 3c a6 60 05 25 93 68 58 27 f2 c0 88 29
       0.014185995 1.1568657e-16 3.0032711e-15 6.073084e-14
000050 ff 7e aa 27 b7 f4 b4 3c 4f 4c 54 3b ae 6c a4 25
       4.732217e-15 0.022089345 0.0032394116 2.852311e-16
000060 e1 64 37 26 03 1d 6c 3b a6 b3 18 3d 03 09 86 3a
       6.3627596e-16 0.0036028035 0.0372807 0.0010226074
000070 dd 51 46 29 fc dc 0f 3d d6 e5 91 28 68 32 3a 1e
       4.4035837e-14 0.035122856 1.619791e-14 9.857182e-21
000080 3b a8 32 26 38 9e df 27 c0 7e 5c 3b 18 3b 7d 3c
       6.198415e-16 6.2066475e-15 0.0033644885 0.015455984
000090 e8 f7 3e 3d a3 c7 0d 27 0a e3 16 29 27 de 1f 23
       0.04662314 1.9675904e-15 3.3503616e-14 8.66645e-18
0000a0 8c a5 a0 23 05 f0 59 25 ec 60 2a 3d 6a 24 d2 24
       1.7417347e-17 1.8903071e-16 0.04159634 9.113467e-17
0000b0 d4 a4 13 25 96 0c c2 27 ff 30 be 3b 97 92 24 3b
       1.2806063e-16 5.3859462e-15 0.0058041806 0.0025111788
0000c0 dd 4c 13 3c b7 52 61 25 8a 0a d7 26 b3 0c 4b 2a
       0.008990494 1.9543664e-16 1.4921479e-15 1.8034428e-13
0000d0 20 dd 2f 29 0e f1 7b 3c c0 80 00 3c 9b de c7 27
       3.90496e-14 0.015377296 0.007843196 5.5474945e-15
0000e0 62 21 28 23 37 98 70 3d e9 50 a9 3b a1 92 90 3c
       9.114367e-18 0.058738913 0.005167116 0.017648043
0000f0 c4 be 85 29 53 a7 e7 3b 60 1a cf 28 0c 53 98 22
       5.939479e-14 0.007069507 2.2993055e-14 4.128761e-18
000100 a0 e6 89 27 ce 46 c2 29 94 2f 69 3d d9 6a 93 3d
       3.8275183e-15 8.627613e-14 0.05693014 0.07198114
000110 b0 c8 85 3d 4c cc 04 2a 2d 10 26 2a a7 3d 03 23
       0.06532419 1.1794835e-13 1.4749374e-13 7.11458e-18
000120 32 78 50 23 89 d3 83 25 34 f0 8c 3d 70 e8 59 24
       1.1301155e-17 2.286822e-16 0.068817526 4.7251257e-17
000130 d8 c6 7b 26 2d 5d 17 28 41 0a 14 3d 78 f6 29 3d
       8.73526e-16 8.402388e-15 0.03614259 0.041494817
000140 23 cc f4 3c 2a 00 ed 27 3f ea 5d 28 90 47 35 2a
       0.029882496 6.578089e-15 1.23187584e-14 1.6100858e-13
000150 16 5f 8f 29 00 09 a4 3d db 12 42 3c dd ad 34 28
       6.3669705e-14 0.08009529 0.011845316 1.0029708e-14
000160 6f 7c 09 23 6b 68 c6 3c 89 94 6c 3c 81 58 3b 3d
       7.453135e-18 0.024219712 0.01443971 0.0457387
000170 05 2f 09 2a 62 5f d8 3c bf ca fa 27 44 ac c5 23
       1.2184358e-13 0.02641267 6.9608757e-15 2.143174e-17
000180 06 57 23 26 f8 5c c7 27 6a 22 2e 3d 35 4b 8f 3d
       5.6669924e-16 5.5334392e-15 0.04251329 0.069967665
000190 2e fc 9c 3d 9e d8 2e 27 52 08 ff 28 12 7e 83 22
       0.07665287 2.426478e-15 2.8314295e-14 3.5641103e-18
0001a0 53 0f bc 24 71 f0 a2 24 e6 71 0e 3d 44 0d e2 23
       8.1557964e-17 7.0663624e-17 0.03477659 2.4508587e-17
0001b0 84 67 89 25 d3 23 81 28 35 8a 8b 3d d9 0f 89 3c
       2.3835857e-16 1.4337413e-14 0.0681347 0.01673119
0001c0 3c f5 18 3d 24 8d 83 24 0e c5 19 27 cf e9 cd 2a
       0.03734325 5.7051295e-17 2.1339839e-15 3.6577553e-13
0001d0 d0 6a 3f 27 84 99 b0 3d 1c 4a 99 3d 15 b7 6c 27
       2.6564478e-15 0.08623031 0.07484838 3.2850828e-15
0001e0 18 fe b3 22 c7 2c 86 3d 82 d5 12 3d 02 5f f2 3c
       4.878708e-18 0.06551509 0.03584815 0.029586319
0001f0 3c 34 a4 29 72 79 4e 3c f6 dc 9c 28 f3 1e b4 21
       7.292124e-14 0.012602197 1.7415306e-14 1.2205467e-18
000200 72 10 84 28 e1 c0 56 29 c0 0c 3f 3e ab 45 02 3d
       1.4662076e-14 4.768484e-14 0.18657207 0.03180472
000210 c3 a1 9c 3d 08 46 13 29 29 cb bd 28 f1 31 1b 23
       0.07648041 3.27013e-14 2.1071322e-14 8.413142e-18
000220 f5 7c 2d 22 4a 48 3d 25 6c 3e c9 3c be db a2 24
       2.3512024e-18 1.6417629e-16 0.024565898 7.062856e-17
000230 b2 ea 1a 26 9f d8 2a 28 ff cd 35 3c 01 65 8b 3d
       5.3747555e-16 9.483868e-15 0.011096477 0.06806374
000240 c0 23 e7 39 12 e1 54 25 33 a2 af 27 67 1c ae 29
       0.0004408639 1.8464326e-16 4.8748114e-15 7.732079e-14
000250 6c 73 33 28 e7 0d 65 3b 70 0b 24 3c cb 4d bf 27
       9.961524e-15 0.0034950913 0.010012493 5.3097493e-15
000260 d5 3b 35 23 78 e0 9e 3d 3b 53 48 3c 20 66 0a 3b
       9.8247e-18 0.07757658 0.012226875 0.0021118
000270 b5 7b ed 28 79 a1 d4 3c ad c8 3f 28 8d 0f 49 1d
       2.6365935e-14 0.025955902 1.06461445e-14 2.6610168e-21
000280 dc f2 ac 23 ee c7 ca 27 ef 8a af 3d d2 ea ff 3d
       1.8751132e-17 5.6283027e-15 0.08571421 0.1249596
000290 37 cf 6f 3d 3d fe 95 28 34 26 bb 29 5e 62 8e 22
       0.058547225 1.6652581e-14 8.3110954e-14 3.8593327e-18
0002a0 f0 6f ba 22 5e 47 fe 24 d1 1a 75 3d 94 38 29 24
       5.053392e-18 1.1027584e-16 0.059840027 3.6693957e-17
0002b0 21 46 b3 25 4d bd b9 28 08 75 48 3d 28 7b 19 3c
       3.1099071e-16 2.0621222e-14 0.048939735 0.009367742
0002c0 16 fc 1d 3d ba 4f 03 25 e6 cd e1 24 15 0d 6c 29
       0.038570486 1.1389451e-16 9.7927e-17 5.2413874e-14
0002d0 52 32 0b 29 72 0b 8a 3c 69 4f 66 3d 70 1b 01 24
       3.0907846e-14 0.01685116 0.056228075 2.7995657e-17
0002e0 2e 1f 03 23 dc cf 3a 3d da 84 67 3d df 8b 95 3b
       7.108127e-18 0.045608386 0.05652318 0.004563793
0002f0 ef 8d 90 29 9e f2 58 3d d8 44 5f 28 fd 60 14 1e
       6.419506e-14 0.052965753 1.2393915e-14 7.8551115e-21
000300 21 a7 a7 27 12 5b 55 28 9c a0 90 3d b9 69 8c 3d
       4.6533013e-15 1.1843623e-14 0.07061884 0.068561025
000310 17 61 28 3d e4 f1 33 27 ea fa a4 28 c4 7c c5 22
       0.041108217 2.497237e-15 1.8316474e-14 5.3529058e-18
000320 bd 61 14 25 08 d7 e3 25 8d de 8e 3d 81 20 65 24
       1.2870069e-16 3.9523934e-16 0.06976042 4.968399e-17
000330 47 94 e2 25 bb 6b 19 29 8a 47 00 3b bc 3f 28 3d
       3.9305227e-16 3.4066266e-14 0.001957389 0.041076407
000340 66 ef d3 3b f7 d6 fb 24 bc ac 34 28 ab ab 4e 29
       0.0064677475 1.0921806e-16 1.0029463e-14 4.5890087e-14
000350 b8 10 df 26 6f dc 42 3b 64 28 52 3b 32 d9 57 25
       1.5478265e-15 0.002973344 0.0032067532 1.8721866e-16
000360 e0 24 37 23 2c 23 fd 3b a4 69 04 3d d3 43 12 3b
       9.9282585e-18 0.00772514 0.03232731 0.0022318258
000370 fc 32 7d 29 98 8b 9a 3c 27 ce c7 27 d4 c2 36 20
       5.6221507e-14 0.018865392 5.5457106e-15 1.5480463e-19
000380 16 3b 8e 27 99 55 9f 27 33 f9 f4 3d d5 b2 e7 3c
       3.947698e-15 4.422417e-15 0.119615935 0.028283516
000390 7e 87 0d 3d 3b 49 85 28 90 74 9e 2b f1 2c b3 24
       0.034553044 1.4797725e-14 1.1258928e-12 7.770501e-17
0003a0 0f 2a 9c 22 fc f5 a0 24 78 7a 03 3c 03 c5 59 24
       4.2328416e-18 6.980565e-17 0.008024804 4.722125e-17
0003b0 2d 06 2a 25 91 89 5a 28 5f 81 96 3d fa b8 25 3d
       1.4747242e-16 1.2131261e-14 0.07348894 0.04045961
0003c0 f9 82 52 3c b2 de b1 24 4d 8b 2b 27 3f 09 7c 2a
       0.012848609 7.7138774e-17 2.3806532e-15 2.2385304e-13
0003d0 87 5e ee 2a 74 5a f3 3c 3c db b4 3b 35 57 00 27
       4.2342884e-13 0.029706217 0.005519299 1.7810843e-15
0003e0 c5 2d 55 22 30 e1 d0 3d 95 4a 88 3c 0e b4 09 3d
       2.8891113e-18 0.10199201 0.016637126 0.03361898
0003f0 30 e8 fa 2a 4a aa 14 3c e0 d4 91 28 ac f7 ae 1f
       4.4570033e-13 0.009073803 1.6190554e-14 7.4101605e-20

exp_avg f4 [10]
000000 30 8f 48 ba c0 19 9c 37 6d 36 ee 3b a0 f1 56 3c
       -0.0007650731 1.860864e-05 0.0072696717 0.013119131
000010 b3 af c3 bb 31 fe f5 bb 46 31 98 bb 76 96 d7 ba
       -0.0059718727 -0.0075071086 -0.0046445457 -0.0016448039
000020 4a be ab 3b 53 9d a7 bb
       0.00524119 -0.00511519

exp_avg_sq f4 [10]
000000 9e 17 bb 39 88 16 c1 39 af 31 25 3a 6b 45 59 3a
       0.00035685016 0.00036828616 0.0006301654 0.0008288237
000010 39 1d 21 3a d5 63 51 3a e0 85 d6 39 c7 1a 1d 3a
       0.0006146017 0.00079875934 0.00040917005 0.0005993065
000020 eb 03 5b 3a 0d b1 67 3a
       0.0008354771 0.00088383333
