best-conv.pth (torch, 81245 bytes, 24 tensors)

layers.0.weight f4 [8, 1, 3, 3]
0.34159076 0.63531893 -0.171435 0.0019415162 0.6159129 0.103844695 -0.44948068 0.47233912
0.16872528 -0.6424899 0.32658634 0.39645717 0.17721823 0.74721986 0.09943243 0.43276376
0.16392167 -0.84717953 0.10089049 -0.53682023 -0.4756876 -0.1390531 -0.5706369 0.13251169
0.81404436 0.51311964 0.23226944 -0.54379994 -0.65468925 0.23127262 -0.24229294 0.39338115
0.7760517 0.35525703 0.28140867 0.04542026 -0.44219774 0.18016724 0.21067826 -0.34971946
-0.15726425 0.48612797 -0.21187164 -0.25506783 0.48156488 0.5993168 0.6322919 0.7723153
-0.34444955 -0.049571764 -0.27164045 -0.38654414 -0.59188783 -0.47584686 -0.40692014 -0.18670031
-0.1797931 -0.18119213 -0.14889443 -0.33674136 -0.2819664 -0.33489332 -0.16220596 0.15483694
0.4904612 0.5101803 -0.141504 0.0772156 0.67148626 -0.7514998 -0.66789675 0.025662519
00000000: fce4 ae3e 43a4 223f a88c 2fbe 797a fe3a
00000010: 78ac 1d3f 87ac d43d 5522 e6be 6fd6 f13e
00000020: 52c6 2c3e 387a 24bf 5336 a73e 6ffc ca3e
00000030: b278 353e cd49 3f3f 3ba3 cb3d 3693 dd3e
00000040: 15db 273e c2e0 58bf ac9f ce3d 0d6d 09bf
00000050: 538d f3be f063 0ebe 4315 12bf 25b1 073e
00000060: 3665 503f cf5b 033f 0ad8 6d3e 7936 0bbf
00000070: b799 27bf bbd2 6c3e a41b 78be 4169 c93e
00000080: 53ab 463f 40e4 b53e cc14 903e 980a 3a3d
00000090: be67 e2be c37d 383e 0bbc 573e 6e0e b3be
000000a0: e109 21be c4e5 f83e e1f4 58be 4098 82be
000000b0: ac8f f63e d36c 193f e2dd 213f 75b6 453f
000000c0: b15b b0be c30b 4bbd 7514 8bbe 1de9 c5be
000000d0: f685 17bf 33a2 f3be d657 d0be 5e2e 3fbe
000000e0: af1b 38be 6e8a 39be c877 18be 5d69 acbe
000000f0: e65d 90be 2377 abbe 5219 26be 938d 1e3e
00000100: bb1d fb3e 2d9b 023f 6de6 10be 3623 9e3d
00000110: 86e6 2b3f 4a62 40bf 48fb 2abf 343a d23c

layers.0.bias f4 [8]
0.2549039 0.25316262 -0.030486688 -0.017415749 -0.024505304 -0.02784202 -0.26820925 0.45609313
00000000: c482 823e 889e 813e 38bf f9bc 79ab 8ebc
00000010: 59bf c8bc f314 e4bc b952 89be 0a85 e93e

layers.3.weight f4 [16, 8, 3, 3]
0.15713735 -0.10705555 0.014701572 -0.3592924 -0.07103555 0.28027213 -0.33774337 0.07823382
0.27744672 -0.0015525416 -0.13939545 0.1951793 -0.06654938 0.13163985 0.27263737 0.0747117
0.22419657 0.2514352 -0.16736387 -0.3283133 -0.20795165 -0.0946991 0.052504838 0.08156844
-0.22287373 -0.25895017 -0.20113505 -0.18398152 -0.10218425 0.13334692 -0.15490477 0.18665154
0.23199713 0.04388562 0.15418822 -0.065893725 -0.033474907 -0.06042926 0.09458908 0.010385521
-0.012119377 -0.06923638 0.33735785 0.118332855 -0.18007708 0.14540975 0.14160168 -0.111459516
0.310856 -0.18892945 0.038905725 0.14136012 -0.19393395 -0.21307074 0.07742835 0.06624677
-0.12008311 0.1856092 -0.022684218 -0.28115326 0.2080421 -0.22977954 -0.06700259 0.19347794
-0.094451286 -0.24656104 -0.122918054 -0.20189723 -0.12885807 -0.092211016 -0.025820365 -0.20159848
0.189496 0.3194934 0.12548967 -0.0008220704 0.3266646 -0.07949435 -0.048359502 0.3820258
0.099363945 -0.14144258 0.18827479 0.1831087 -0.13585642 0.19415854 0.08567305 0.10037238
0.006031639 0.03042957 -0.11965133 -0.14991134 -0.064392656 -0.2248847 -0.29869205 0.10437908
-0.33143887 0.010185403 0.5209366 0.009592838 0.20419824 -0.043825842 0.05302734 0.03003091
-0.09170002 0.2913456 -0.1564754 -0.11780623 0.060506143 0.11674115 0.19642206 0.19918455
-0.003312453 -0.19008644 0.19091249 0.040472843 -0.0576632 -0.08657663 -0.40745735 0.0085316785
-0.1709413 -0.5821652 -0.11063024 -0.32353392 -0.3336947 -0.13248888 -0.031054923 -0.29004937
-0.0038271893 -0.1034729 -0.302278 0.046608757 -0.15349388 -0.1257669 0.08416334 0.16374949
0.16312438 0.060014114 -0.05458805 -0.12423125 -0.15666144 0.052005608 0.098036245 -0.18695767
0.097310126 -0.27302018 -0.14735785 0.00078993116 -0.014445043 -0.18984933 0.034051515 0.031147277
-0.1408733 0.127692 0.42641628 0.1589963 -0.098068 -0.022951726 -0.008538568 -0.28826484
-0.18126015 0.097327456 -0.24459395 -0.027032474 -0.368841 -0.19296628 0.21555158 0.12983209
0.11279372 0.20766944 0.23843804 -0.12223877 0.17270692 0.15069796 0.01260691 -0.09793134
0.14167824 -0.24693674 -0.20246838 -0.057948533 -0.036906086 -0.151397 0.04428558 0.06131431
0.0027411692 0.07045643 0.35013476 0.123538695 -0.20040813 -0.17920409 -0.007614685 0.3228193
-0.27638853 -0.40283182 0.02025027 0.058017746 -0.04183669 0.21892206 -0.35456225 -0.22985032
-0.22075072 -0.34326148 -0.25702655 -0.0023940913 -0.011566465 -0.118218325 0.068290316 0.2696312
0.010244049 0.25749412 0.26220223 -0.034191914 -0.047270276 0.31320912 0.15157254 0.16591993
-0.15718442 0.1860378 0.22814512 -0.27908203 -0.0012352112 0.11835955 0.09266268 -0.26211277
-0.108514026 -0.8247991 0.043796528 0.05080157 -0.47383425 -0.4693795 -0.17118599 0.110650755
-0.15611961 -0.15251024 -0.76640505 -0.31630564 -0.24793085 0.12713346 0.26989236 -0.12790339
0.14461547 0.43579283 0.086453095 -0.5115571 0.022637393 0.19169843 -0.59354186 -0.77763134
-0.11808623 0.088927425 0.06086723 0.072005905 0.34881967 0.22162984 -0.07145582 -0.0857153
00000000: 9de8 203e f13f dbbd ddde 703c 2cf5 b7be
00000010: 167b 91bd d47f 8f3e b3ec acbe 0e39 a03d
00000020: 7f0d 8e3e a77e cbba aebd 0ebe 15dd 473e
00000030: 0b4b 88bd 99cc 063e 2097 8b3e 7302 993d
00000040: c993 653e 1dbc 803e 6f61 2bbe ae18 a8be
00000050: 47f1 54be 9af1 c1bd 500f 573d 5b0d a73d
00000060: 0339 64be 1e95 84be 59f6 4dbe a765 3cbe
00000070: fa45 d1bd 188c 083e 5b9f 1ebe 9521 3f3e
00000080: a890 6d3e 68c1 333d 84e3 1d3e 4af3 86bd
00000090: fc1c 09bd ac84 77bd ebb7 c13d 0828 2a3c
000000a0: 5a90 46bc cecb 8dbd 2bba ac3e 7f58 f23d
000000b0: 2066 38be 4be6 143e 0800 113e e344 e4bd
000000c0: 8528 9f3e b976 41be 9c5b 1f3d b5c0 103e
000000d0: 9f96 46be 372f 5abe c192 9e3d 63ac 873d
000000e0: 22ee f5bd 5710 3e3e 41d4 b9bc 52f3 8fbe
000000f0: fd08 553e 544b 6bbe a738 89bd 151f 463e
00000100: ad6f c1bd 7f7a 7cbe 76bc fbbd 26be 4ebe
00000110: 5ff3 03be 21d9 bcbd 3b85 d3bc d56f 4ebe
00000120: 3d0b 423e a494 a33e 5d80 003e 3680 57ba
00000130: 9540 a73e efcd a2bd 9d14 46bd e398 c33e
00000140: 537f cb3d 53d6 10be 1bcb 403e d980 3b3e
00000150: f21d 0bbe 7fd1 463e 5a75 af3d 0990 cd3d
00000160: 0ea5 c53b 6f47 f93c c20b f5bd 5c82 19be
00000170: 4ce0 83bd 2d48 66be 2aee 98be b3c4 d53d
00000180: 5bb2 a9be ade0 263c 1a5c 053f 472b 1d3c
00000190: 5819 513e ba82 33bd 3233 593d 6203 f63c
000001a0: 38cd bbbd 402b 953e 163b 20be 6544 f1bd
000001b0: 4ad5 773d fc15 ef3d dd22 493e 09f7 4b3e
000001c0: bd15 59bb 05a6 42be 907e 433e dac6 253d
000001d0: 3f30 6cbd 174f b1bd 409e d0be 74c8 0b3c
000001e0: 3c0b 2fbe c708 15bf 1b92 e2bd 3da6 a5be
000001f0: 08da aabe 2aab 07be e566 febc 5a81 94be
00000200: 95d1 7abb 9ae9 d3bd 2fc4 9abe d3e8 3e3d
00000210: 802d 1dbe 0ac9 00be d45d ac3d f2ad 273e
00000220: 140a 273e 5cd1 753d b897 5fbd f46c febd
00000230: db6b 20be d503 553d 3ac7 c83d d571 3fbe
00000240: 884a c73d 4dc9 8bbe fae4 16be 6213 4f3a
00000250: e7aa 6cbc dd67 42be 9a79 0b3d 9328 ff3c
00000260: 1741 10be b1c1 023e 3c53 da3e edcf 223e
00000270: e0d7 c8bd 4205 bcbc 5ae5 0bbc 7397 93be
00000280: 439c 39be 9e53 c73d d676 7abe 3573 ddbc
00000290: bad8 bcbe f498 45be 8eb9 5c3e b4f2 043e
000002a0: 6500 e73d 4ca7 543e 1a29 743e 5258 fabd
000002b0: 15da 303e 9150 1a3e 378d 4e3c 3a90 c8bd
000002c0: 1a14 113e fcdc 7cbe df53 4fbe 715b 6dbd
000002d0: d62a 17bd d107 1bbe cc64 353d b724 7b3d
000002e0: 30a5 333b 764b 903d dd44 b33e db01 fd3d
000002f0: ca37 4dbe 4781 37be 9c84 f9bb 9248 a53e
00000300: cc82 8dbe f93f cebe e5e3 a53c 04a4 6d3d
00000310: f35c 2bbd 1b2d 603e 2f89 b5be e25d 6bbe
00000320: 7a0c 62be f8bf afbe fc98 83be 30e6 1cbb
00000330: 4581 3dbc 731c f2bd cbdb 8b3d 1a0d 8a3e
00000340: a8d6 273c 45d6 833e 5f3f 863e d20c 0cbd
00000350: 7a9e 41bd f25c a03e d535 1b3e eae6 293e
00000360: f4f4 20be b180 3e3e e09e 693e d7e3 8ebe
00000370: cfe6 a1ba 7e66 f23d eec5 bd3d a533 86be
00000380: 9a3c debd 0926 53bf fd63 333d 4f15 503d
00000390: 679a f2be 8352 f0be 614b 2fbe dd9c e23d
000003a0: d2dd 1fbe a52b 1cbe 1f33 44bf d0f2 a1be
000003b0: 96e1 7dbe 462f 023e 552f 8a3e 1bf9 02be
000003c0: 1416 143e 3d20 df3e 520e b13d 68f5 02bf
000003d0: 0e72 b93c 984c 443e 5cf2 17bf d912 47bf
000003e0: 31d7 f1bd 951f b63d eb4f 793d d577 933d
000003f0: 7e98 b23e eff2 623e 6e57 92bd 818b afbd

layers.3.bias f4 [16]
0.07725829 0.20093237 -0.12709445 0.096971974 -0.07485783 0.06587765 0.010751271 -0.09637893
-0.0802944 -0.0357993 0.04835618 0.15504958 0.1099854 -0.18752816 0.17034715 -0.13071738
00000000: 9839 9e3d 37c1 4d3e 0c25 02be 3e99 c63d
00000010: 104f 99bd ddea 863d 1926 303c 5162 c5bd
00000020: 6471 a4bd 49a2 12bd 2111 463d 51c5 1e3e
00000030: 0740 e13d 6207 40be 7c6f 2e3e c7da 05be

layers.6.weight f4 [32, 16, 3, 3]
-0.15491 -0.0820635 0.17657827 0.057104804 0.0754043 -0.1976025 -0.030648597 0.042066418
-0.31825384 -0.08184818 -0.07508241 0.052358784 0.087541565 -0.03888147 0.032298543 0.11222616
0.13578644 -0.0889005 -0.066067964 0.013233257 -0.0030467464 -0.10594154 0.066609554 -0.05517545
0.19048063 0.12514323 0.18468507 0.19267567 -0.013516069 -0.17583163 0.0071441084 -0.02654159
-0.35592532 -0.21584931 0.011217399 0.09359461 0.12151801 0.11155219 -0.23067883 0.0722287
0.12090306 0.08140844 -0.17054638 -0.1481661 0.2072864 -0.034207482 -0.07179496 0.06220401
0.06264917 -0.098992646 -0.08248146 0.12967426 -0.011947836 0.022515483 0.08065313 -0.049758956
0.11410148 -0.06948395 -0.004234992 -0.05103188 0.00037015713 0.0796483 -0.10173342 -0.023935633
0.13159154 0.06953044 -0.08122776 0.02948714 -0.34500003 0.19113943 -0.02726451 -0.33339676
-0.09082474 0.18083413 -0.0252981 -0.030489786 -0.02760634 0.075820066 0.027950568 0.10633418
0.094239876 0.25971907 0.010321197 -0.21321578 -0.005296611 -0.033984073 -0.1355106 -0.21911736
-0.12939727 0.1877093 -0.037073154 -0.081899785 -0.020496935 0.10952921 0.00012135727 0.12690155
-0.105644435 -0.18687423 0.056421798 -0.10644267 -0.004837005 0.01076887 -0.01743947 -0.31092256
-0.20987378 0.093241796 -0.18554196 -0.08102625 0.31064132 -0.022516917 -0.44278336 0.15834777
0.12268215 0.018095609 -0.29697913 0.0016257664 0.3485368 0.008974637 -0.075565055 -0.05264255
0.14810564 0.09725854 0.029799037 0.0128852185 0.09596495 0.11021448 0.07757543 0.016790597
-0.19652337 0.080917075 0.024543533 -0.007921472 0.11126743 0.04792424 0.13094388 0.20640759
0.028166324 -0.056018632 -0.016778953 0.037987802 0.03696218 0.081899315 -0.034615643 0.4140773
0.17733492 0.22321372 0.05890612 0.24408007 0.18343322 -0.07666967 -0.05379802 -0.26441604
-0.17625178 0.008393038 -0.01157348 -0.071530506 0.33075646 0.0024930944 -0.028949674 0.04691217
-0.17972523 0.086616084 -0.2981499 -0.29516804 0.07892091 0.2544706 0.27404803 0.14119375
-0.022011084 0.035908684 0.0015370764 0.108997494 -0.11661094 -0.016012788 -0.32315227 -0.53205097
-0.13155936 0.14465612 0.19386782 -0.00017680602 -0.19089335 -0.18352325 0.04455984 -0.29966667
0.03308434 0.14684719 -0.16083007 0.38355595 0.24725406 -0.1491297 -0.038055614 0.037141357
0.04472036 0.22910978 0.10794154 -0.22176701 -0.20092331 -0.03365429 0.05815043 0.19885047
0.19249484 -0.17228234 -0.002593018 0.1578769 -0.25084195 -0.055170447 0.13649179 -0.11284226
0.12708777 -0.09152233 0.07654862 -0.07006212 -0.057302542 0.05785717 -0.106046826 -0.19370991
-0.06750303 0.012324267 -0.014389186 -0.17610385 0.034143686 -0.0749843 -0.1807021 0.20428537
0.09128976 -0.39953858 -0.33076867 0.027041294 -0.48213208 -0.03567793 0.009124413 -0.1780297
0.1174965 -0.1329516 0.04385475 0.1981694 0.073594816 0.01569907 0.20635238 0.033078723
-0.32556084 -0.045133404 0.2605058 0.20616928 -0.016648281 8.383329e-06 -0.0077693714 -0.15684867
-0.2428002 0.10964529 -0.74396926 -0.21371426 -0.39472535 -0.02899648 -0.07769472 -0.22760548
00000000: baa0 1ebe e910 a8bd efd0 343e bae6 693d
00000010: 926d 9a3d 4f58 4abe c412 fbbc d64d 2c3d
00000020: 2bf2 a2be 05a0 a7bd cec4 99bd 2a76 563d
00000030: fe48 b33d 2d42 1fbd 7a4b 043d d4d6 e53d
00000040: 9a0b 0b3e 7711 b6bd a44e 87bd 4ed0 583c
00000050: ecab 47bb e1f7 d8bd 976a 883d a7ff 61bd
00000060: 5b0d 433e 8c25 003e 151e 3d3e c54c 453e
00000070: 8172 5dbc 350d 34be 2019 ea3b c06d d9bc
00000080: d83b b6be 9a07 5dbe 2ec9 373c 88ae bf3d
00000090: 6fde f83d 7975 e43d 1237 6cbe a4ec 933d
000000a0: 069c f73d 78b9 a63d b6a3 2ebe dbb8 17be
000000b0: e342 543e 251d 0cbd 3c09 93bd a2c9 7e3d
000000c0: 354e 803d a8bc cabd 0aec a8bd 54c9 043e
000000d0: dbc0 43bc 6472 b83c 782d a53d 0cd0 4bbd
000000e0: 09ae e93d 9a4d 8ebd b0c5 8abb ce06 51bd
000000f0: a611 c239 a61e a33d 9c59 d0bd a914 c4bc
00000100: efbf 063e fa65 8e3d bd5a a6bd 048f f13c
00000110: d8a3 b0be 0eba 433e d259 dfbc fbb2 aabe
00000120: 5202 babd 952c 393e f63d cfbc b7c5 f9bc
00000130: b126 e2bc 8d47 9b3d 97f8 e43c bcc5 d93d
00000140: d600 c13d e6f9 843e 3d1a 293c 3d55 5abe
00000150: 328f adbb e232 0bbd 4ac3 0abe 4d60 60be
00000160: b880 04be de36 403e 05da 17bd 13bb a7bd
00000170: 30e9 a7bc da50 e03d 3081 fe38 7bf2 013e
00000180: 1c5c d8bd f55b 3fbe 8b1a 673d 9dfe d9bd
00000190: bd7f 9ebb ea6f 303c 38dd 8ebc 3e31 9fbe
000001a0: 27e9 56be 8ef5 be3d b6fe 3dbe 17f1 a5bd
000001b0: 610c 9f3e 6675 b8bc 80b4 e2be eb25 223e
000001c0: c740 fb3d 3e3d 943c a60d 98be ab17 d53a
000001d0: 6a73 b23e 5b0a 133c dac1 9abd b79f 57bd
000001e0: 01a9 173e 7c2f c73d 1c1d f43c 861c 533c
000001f0: 4689 c43d 21b8 e13d dedf 9e3d 6f8c 893c
00000200: 6c3d 49be dab7 a53d 850f c93c 10c9 01bc
00000210: 2ee0 e33d 354c 443d 2716 063e 835c 533e
00000220: 10bd e63c cb73 65bd 0474 89bc 1999 1b3d
00000230: a865 173d d4ba a73d 22c9 0dbd f101 d43e
00000240: 4997 353e 2392 643e 8b47 713d 20f0 793e
00000250: ebd5 3b3e fd04 9dbd 505b 5cbd 8a61 87be
00000260: 597b 34be f482 093c b29e 3dbc 967e 92bd
00000270: e958 a93e 2f63 233b de27 edbc fa26 403d
00000280: e409 38be c663 b13d 1ba7 98be 4420 97be
00000290: 49a1 a13d f849 823e 0650 8c3e 1895 103e
000002a0: 9750 b4bc fc14 133d ba77 c93a 143a df3d
000002b0: b7d1 eebd 402d 83bc 3774 a5be 7e34 08bf
000002c0: 7fb7 06be bc20 143e 4985 463e 0165 39b9
000002d0: 8c79 43be 85ed 3bbe 6184 363d e96d 99be
000002e0: 7283 073d 1c5f 163e a3b0 24be 7261 c43e
000002f0: 2b30 7d3e 75b5 18be 34e0 1bbd 8921 183d
00000300: b22c 373d c19b 6a3e 7410 dd3d e416 63be
00000310: d7be 4dbe 15d9 09bd 252f 6e3d 759f 4b3e
00000320: 5e1d 453e c86a 30be a0ef 29bb 7baa 213e
00000330: 5b6e 80be 68fa 61bd 81c4 0b3e d819 e7bd
00000340: 4c23 023e 0f70 bbbd 86c5 9c3d bb7c 8fbd
00000350: 12b6 6abd a4fb 6c3d 142f d9bd e45b 46be
00000360: 073f 8abd b9eb 493c 9fc0 6bbc 9154 34be
00000370: 40da 0b3d 5e91 99bd f909 39be 2f30 513e
00000380: 20f6 ba3d 5290 ccbe 835a a9be b485 dd3c
00000390: 04da f6be 0523 12bd 907e 153c 6b4d 36be
000003a0: 01a2 f03d 7724 08be 0aa1 333d ebec 4a3e
000003b0: e1b8 963d 569b 803c 0a4e 533e 8e7d 073d
000003c0: e9af a6be cedd 38bd 0461 853e 0a1e 533e
000003d0: fa61 88bc 20a6 0c37 3696 febb f09c 20be
000003e0: 9ea0 78be b68d e03d c574 3ebf e9d7 5abe
000003f0: 7119 cabe 078a edbc 691e 9fbd 6911 69be

layers.6.bias f4 [32]
-0.061883878 -0.07488322 -0.07340357 -0.010209075 -0.015465224 0.09535706 -0.03352004 -0.11627962
-0.15035468 0.0720086 -0.032252815 0.024395134 -0.102235764 0.056775168 -0.11563124 0.043945737
-0.0062480024 -0.07913376 0.08134421 -0.01112818 -0.06367449 0.07293268 -0.14907792 0.07438935
0.053280715 -0.03517951 0.03365054 0.06710338 0.040968075 0.06380662 -0.017400833 0.05400855
00000000: f379 7dbd 605c 99bd 9c54 96bd f743 27bc
00000010: da61 7dbc 904a c33d 4f4c 09bd 0224 eebd
00000020: 94f6 19be 3f79 933d 871b 04bd 4ed8 c73c
00000030: fc60 d1bd 148d 683d 12d0 ecbd 7200 343d
00000040: 0bbc ccbb e110 a2bd cb97 a63d f852 36bc
00000050: c567 82bd bb5d 953d e2a7 18be 7259 983d
00000060: e13c 5a3d 6418 10bd 26d5 093d 7f6d 893d
00000070: 24ce 273d 0cad 823d 318c 8ebc 1238 5d3d

classifier.0.weight f4 [10, 32]
-0.052329607 0.23136815 0.33396545 0.15856823 -0.09072044 -0.052973717 -0.06243793 -0.107132174
-0.19783112 -0.4080123 0.070057616 -0.25667754 -0.032869626 0.10739383 -0.0014235303 -0.09028702
0.043959443 -0.018081013 -0.205592 0.20790254 0.031981237 0.26173648 -0.33199003 -0.09515998
0.2183315 -0.24716999 -0.11823146 0.25192183 -0.30053487 0.2638483 0.00894193 0.21026151
-0.05410324 -0.3736624 -0.4685208 0.0130129745 0.119913734 0.26556015 -0.09522698 -0.20681801
-0.08453802 0.059576344 0.08869926 0.04801091 -0.33358333 0.0008506115 0.10687228 0.033968363
0.113672286 -0.38999182 -0.00929569 0.21099192 -0.018600224 -0.086570136 -0.35584694 0.28993693
0.06823694 0.19248992 0.005135765 0.08614737 0.079623714 0.13618559 0.050055556 -0.31535023
0.26472667 0.073810965 0.05071573 0.30185786 -0.14282045 -0.31289068 -0.08055274 -0.060434286
-0.12744872 -0.11191327 0.07848653 0.0883327 -0.3865817 -0.13673037 0.13026185 -0.07930237
-0.051483404 0.39387718 -0.09919068 0.20462315 -0.18252629 0.024771482 -0.16959198 -0.18286505
-0.3407616 0.32208827 -0.0635877 0.03501503 0.07534228 -0.091769345 0.1916473 -0.039091166
-0.11418736 -0.047176685 0.081091 -0.2921715 -0.17103846 -0.31346065 0.14978582 0.0177243
-0.077115044 0.31663364 -0.0043061925 -0.13205595 0.062255364 -0.19896777 0.38826767 -0.25228363
-0.09666001 -0.03824274 -0.30240306 -0.4184408 -0.0523996 -0.34462565 -0.12464391 -0.26919898
-0.22172195 0.14045137 0.28502318 0.102272555 0.33094642 -0.063438855 0.08074868 -0.14712045
-0.01963322 0.13872793 -0.2799597 0.10963415 0.46720633 -0.032334268 -0.092002586 0.023720583
0.04787274 -0.18573393 -0.20739724 0.24226904 0.0081809 0.4185332 -0.25873563 -0.0818227
0.09600826 -0.19587545 0.16732709 0.096256316 0.024486009 0.04400286 0.27373114 0.2637401
-0.4024649 -0.17019746 0.034972332 -0.06934112 -0.11422347 0.021083318 -0.124565706 -0.19241446
-0.17771555 0.045999743 0.07887072 -0.21666308 0.078333475 -0.23611394 0.03650968 -0.008034747
0.24343655 0.15321076 0.2163893 -0.39249855 0.27013284 -0.23010306 -0.19270034 0.22574058
0.029810894 -0.010467882 0.24512947 0.022792768 0.09502171 -0.20879792 0.052320432 -0.27159697
0.07165138 0.09690941 -0.20601359 0.033722725 0.23491931 0.02780398 -0.0012304421 -0.03420218
0.0025654736 0.114208125 0.23034345 -0.15269145 0.21017723 0.23547828 0.120648816 0.21271771
0.18094905 0.009054052 0.22985496 -0.43199143 0.051407497 -0.17781074 -0.2753731 -0.11036145
-0.1743966 -0.087499134 -0.2016771 0.29678768 0.09273739 0.30894426 -0.396644 0.02700961
-0.035719573 0.17390391 -0.2513924 -0.5585444 -0.1612062 0.1456119 0.004454303 -0.4108559
0.26994866 -0.37994072 -0.14327833 0.076693974 -0.19299239 0.17968753 -0.017544396 -0.18079807
-0.036940027 0.05659767 -0.33941633 0.20386586 -0.085448 -0.0539357 0.11039281 -0.08424833
-0.1628872 0.27985564 0.0912721 0.11542837 -0.10048553 -0.2698904 0.15974973 0.29213873
-0.19540475 -0.1426127 -0.17290819 0.112783946 -0.18732971 -0.30877316 -0.14040074 0.29429173
00000000: 9257 56bd c6eb 6c3e 85fd aa3e b65f 223e
00000010: a3cb b9bd f8fa 58bd eabe 7fbd 1d68 dbbd
00000020: 3e94 4abe fde6 d0be 5e7a 8f3d 3d6b 83be
00000030: 4da2 06bd 4cf1 db3d c095 baba 67e8 b8bd
00000040: d10e 343d a21e 94bc b686 52be 67e4 543e
00000050: c2fe 023d 5302 863e 99fa a9be 3ce3 c2bd
00000060: 4b92 5f3e 211a 7dbe 5623 f2bd e6fb 803e
00000070: b5df 99be 2017 873e 2c81 123c cb4e 573e
00000080: 5c9b 5dbd ae50 bfbe f5e1 efbe 5f34 553c
00000090: 5595 f53d 80f7 873e 5d06 c3bd 1ac8 53be
000000a0: 4522 adbd 5306 743d f5a7 b53d 17a7 443d
000000b0: 6fcb aabe 92fb 5e3a dbdf da3d 6922 0b3d
000000c0: 04cd e83d 02ad c7be f34c 18bc 440e 583e
000000d0: 7f5f 98bc af4b b1bd 9231 b6be 9d72 943e
000000e0: cfbf 8b3d 141c 453e eb49 a83b 086e b03d
000000f0: c211 a33d 3c74 0b3e 0e07 4d3d 9675 a1be
00000100: 418a 873e 342a 973d 4cbb 4f3d 1d8d 9a3e
00000110: 863f 12be 3533 a0be d6f8 a4bd f189 77bd
00000120: eb81 02be c932 e5bd 8cbd a03d c6e7 b43d
00000130: 09ee c5be 0c03 0cbe 5d63 053e 4869 a2bd
00000140: 43e0 52bd 45aa c93e 7c24 cbbd bb88 513e
00000150: 2ce8 3abe 90ed ca3c 85a9 2dbe fa40 3bbe
00000160: 4e78 aebe c1e8 a43e 453a 82bd ec6b 0f3d
00000170: 0e4d 9a3d 91f1 bbbd 313f 443e 0f1e 20bd
00000180: 10db e9bd 573c 41bd 0a13 a63d 8197 95be
00000190: b524 2fbe ea7d a0be 7461 193e 8d32 913c
000001a0: 7eee 9dbd ce1d a23e f61a 8dbb ad39 07be
000001b0: 7bff 7e3d 35be 4bbe 05cb c63e 522b 81be
000001c0: aff5 c5bd 6ba4 1cbd 93d4 9abe df3d d6be
000001d0: f7a0 56bd c672 b0be 4e45 ffbd 73d4 89be
000001e0: 140b 63be 7cd2 0f3e 8fee 913e 4674 d13d
000001f0: cf71 a93e 3bec 81bd 905f a53d bea6 16be
00000200: d9d5 a0bc b20e 0e3e e156 8fbe df87 e03d
00000210: ab35 ef3e f070 04bd da6b bcbd ab51 c23c
00000220: 3516 443d 0931 3ebe f15f 54be 6015 783e
00000230: 2e09 063c fc49 d63e ff78 84be a992 a7bd
00000240: fb9f c43d 9393 48be cb57 2b3e 0822 c53d
00000250: e296 c83c 583c 343d 7d26 8c3e f108 873e
00000260: e10f cebe 3e48 2ebe 263f 0f3d b802 8ebd
00000270: ffed e9bd ecb6 ac3c 4e1c ffbd 4c08 45be
00000280: 11fb 35be 3a6a 3c3d f986 a13d eddc 5dbe
00000290: 4d6d a03d dac7 71be 2d8b 153d 2ca4 03bc
000002a0: 6e47 793e 48e3 1c3e 2895 5d3e 92f5 c8be
000002b0: da4e 8a3e 23a0 6bbe 3d53 45be 8a28 673e
000002c0: fa35 f43c 7b81 2bbc 3803 7b3e e6b7 ba3c
000002d0: be9a c23d 1fcf 55be f34d 563d c20e 8bbe
000002e0: f5bd 923d 7178 c63d 3af5 52be d720 0a3d
000002f0: b08e 703e 2cc5 e33c c946 a1ba 9617 0cbd
00000300: 8121 283b f3e5 e93d 27df 6b3e 265b 1cbe
00000310: b338 573e 3821 713e ba16 f73d acd2 593e
00000320: b54a 393e 7257 143c 195f 6b3e fb2d ddbe
00000330: ab90 523d 0514 36be b4fd 8cbe 2f05 e2bd
00000340: 0695 32be bf32 b3bd 7184 4ebe 8ef4 973e
00000350: 1aed bd3d f12d 9e3e ec14 cbbe 4243 dd3c
00000360: b04e 12bd de13 323e 81b6 80be c4fc 0ebf
00000370: 3d13 25be 491b 153e 67f5 913b b45b d2be
00000380: b636 8a3e 9787 c2be 8eb7 12be bb11 9d3d
00000390: cc9f 45be 0200 383e 44b9 8fbc 2123 39be
000003a0: 6d4e 17bd f5d2 673d fac7 adbe 36c2 503e
000003b0: 5cff aebd aeeb 5cbd a015 e23d 638a acbd
000003c0: e7cb 26be 3d49 8f3e deec ba3d b665 ec3d
000003d0: 5ccb cdbd 132f 8abe 6f95 233e 3593 953e
000003e0: 2f18 48be 1009 12be d80e 31be 45fb e63d
000003f0: 5cd3 3fbe 8417 9ebe 36c5 0fbe 68ad 963e

classifier.0.bias f4 [10]
0.25087792 0.17285776 0.07655916 -0.019161763 -0.19459397 -0.03349887 -0.07304688 0.05707803
0.022088567 -0.24368742
00000000: 1273 803e a001 313e 0dcb 9c3d 21f9 9cbc
00000010: a443 47be 1c36 09bd 9a99 95bd a7ca 693d
00000020: 15f3 b43c 3289 79be

exp_avg f4 [8, 1, 3, 3]
0.003871405 0.0003107725 -0.0041454015 -0.0025789673 -0.010127371 -0.009780429 -0.00041890127 -0.006358335
-0.0030062522 -0.00044633148 0.012056624 0.010551912 0.0031914208 0.004606482 0.00052051526 0.0017025814
0.0035074705 0.0001496754 -0.007741652 -0.0027674583 -0.0024968875 -0.0031890748 -0.0049630892 -0.009449004
-0.002174594 -0.0005152902 -0.0013818593 -0.008619861 -0.004027524 0.008710884 -0.007861709 0.0025463493
0.012348155 -0.0036348768 0.005066582 0.0049062977 0.0014960279 -0.0017174617 0.0019257823 -0.00095558993
-0.0023130144 -0.0008569305 -0.003597036 -0.0036321674 -0.0052234493 -0.0063468684 -0.005306379 -0.00011049261
0.0064945766 -0.00010435501 0.0029347248 0.006492303 -0.0009801282 0.0041453294 0.0067228666 0.010374568
0.009693499 0.0054840734 0.009854501 0.0043387054 0.007724538 0.009029408 0.0010058811 -0.0037662943
-0.010157039 -0.013451519 -0.010991305 -0.019155415 -0.014394243 -0.0030902554 -0.0083448645 -0.015203599
00000000: 66b7 7d3b 2eef a239 26d6 87bb e403 29bb
00000010: 46ed 25bc 183e 20bc fa9f dbb9 9459 d0bb
00000020: 8b04 45bb 9901 eab9 2589 453c ede1 2c3c
00000030: 2827 513b f9f1 963b 3073 083a 2729 df3a
00000040: 97dd 653b 2ff2 1c39 afad fdbb 3f5e 35bb
00000050: d2a2 23bb ccff 50bb 69a1 a2bb ffcf 1abc
00000060: a283 0ebb 8a14 07ba 811f b5ba 513a 0dbc
00000070: 52f9 83bb 18b8 0e3c 66ce 00bc a7e0 263b
00000080: ea4f 4a3c 1d37 6ebb 9205 a63b 02c5 a03b
00000090: 5e16 c43a 741c e1ba 886a fc3a 8e80 7aba
000000a0: f195 17bb a2a3 60ba 40bc 6bbb a809 6ebb
000000b0: 7829 abbb 64f9 cfbb 22e1 adbb 45b8 e7b8
000000c0: 75d0 d43b 2bd9 dab8 8354 403b 63bd d43b
000000d0: a577 80ba 8bd5 873b 7e4b dc3b 18fa 293c
000000e0: 7bd1 1e3c beb3 b33b c674 213c b32b 8e3b
000000f0: 1f1e fd3b 15f0 133c c5d7 833a efd3 76bb
00000100: b669 26bc c363 5cbc e014 34bc d1eb 9cbc
00000110: d5d5 6bbc e285 4abb e6b8 08bc 8418 79bc

exp_avg_sq f4 [8, 1, 3, 3]
0.0008820557 0.0014231547 0.0010283898 0.0009882178 0.0015728797 0.00095362787 0.0011278061 0.0014707926
0.00095781026 0.0009936034 0.0009107714 0.001154657 0.0009987634 0.0009620655 0.0008641625 0.0012573383
0.00083914946 0.0011384288 0.003929968 0.003175014 0.002499203 0.0033607404 0.0019781282 0.001917081
0.0025348812 0.0018599571 0.0020170198 0.00079297373 0.00065795454 0.00087053416 0.00075290474 0.00065293
0.00079016876 0.0008268865 0.0006966715 0.0007331528 0.0024877978 0.0015331911 0.001105655 0.0020767315
0.0008671423 0.0013153218 0.0014842805 0.0010609373 0.0017191028 0.001775439 0.0021711418 0.0018448917
0.0013489946 0.00095756736 0.0011201024 0.0012815674 0.0010861548 0.0013425873 0.0027033314 0.0032215652
0.0031579996 0.0032120105 0.003788987 0.003365779 0.0031806785 0.003150141 0.002541252 0.0021748422
0.0019505187 0.0016580838 0.002219345 0.001587988 0.0014577565 0.0025696848 0.0021205118 0.0017343172
00000000: c239 673a 2689 ba3a 09cb 863a 1687 813a
00000010: 1629 ce3a e2fc 793a e5d2 933a 9cc7 c03a
00000020: 8f15 7b3a cc3b 823a d6c0 6e3a dc57 973a
00000030: f0e8 823a 1f33 7c3a f788 623a 46cd a43a
00000040: 5efa 5b3a 5537 953a f6c6 803b e513 503b
00000050: abc9 233b de3f 5c3b 7ca3 013b 9046 fb3a
00000060: 4020 263b cec9 f33a fa2f 043b 91df 4f3a
00000070: 957a 2c3a 8f34 643a 955e 453a 6429 2b3a
00000080: 5423 4f3a 6ac3 583a d5a0 363a 0d31 403a
00000090: 520a 233b 5bf5 c83a a0eb 903a c619 083b
000000a0: ef50 633a e066 ac3a 308c c23a 260f 8b3a
000000b0: 8553 e13a d9b5 e83a b749 0e3b 4bd0 f13a
000000c0: bfd0 b03a 4205 7b3a 66d0 923a 44fa a73a
000000d0: 4f5d 8e3a c1f9 af3a 602a 313b e520 533b
000000e0: 71f6 4e3b 9880 523b a750 783b 6794 5c3b
000000f0: ee72 503b 9972 4e3b 228b 263b cc87 0e3b
00000100: 8ca8 ff3a 0f54 d93a 6e72 113b 0924 d03a
00000110: 3112 bf3a 2868 283b 49f8 0a3b 0752 e33a

exp_avg f4 [8]
-0.0034357682 0.011549129 0.0025559997 0.013709886 -0.0017509861 -0.0028009561 -0.011940428 0.008298559
00000000: a02a 61bb 8f38 3d3c 8f82 273b 6e9f 603c
00000010: 5881 e5ba 3f90 37bb c9a1 43bc aef6 073c

exp_avg_sq f4 [8]
0.0023309372 0.0022191782 0.0047491924 0.0010958371 0.0037000251 0.0023898592 0.0044037015 0.0046160966
00000000: a3c2 183b a26f 113b 1d9f 9b3b 31a2 8f3a
00000010: 1f7c 723b 2f9f 1c3b ed4c 903b a042 973b

exp_avg f4 [16, 8, 3, 3]
0.0006709749 0.00048599383 0.003647095 -0.00042294335 0.0038024876 0.0039232722 0.0013573733 0.0030285106
-0.0006067157 0.0033613837 -0.0017990463 0.011734718 0.00017481612 0.0064389473 0.005574796 0.0016808381
0.0032150925 0.0013367002 -6.5313675e-06 0.003462249 0.0031151571 0.0035502042 0.0020162468 0.0013822054
-0.00044109466 -0.0024298963 -0.0008089253 0.002869792 0.006012634 0.006785459 0.0022199298 0.006717801
0.00023336703 -0.00031373475 1.0706146e-05 -0.0044707432 0.00041108349 0.0041354555 0.0011601204 0.0014297027
0.0040596374 -0.0021510858 0.00037824284 0.0016344524 -0.0013843364 0.0055589415 0.005201597 0.0044785263
0.001818106 0.0007944534 0.0020278613 0.0036402664 0.009283348 0.007925654 0.0034090846 0.004015111
-0.00093106704 0.0047649518 0.0010404359 -0.0006461284 0.0029789559 0.0029118662 0.0050175698 0.002543199
0.004935495 0.004266494 0.0024998474 0.0052066077 -0.00045246995 0.004631318 0.00602316 0.0036462164
0.00046834807 0.0015045964 -0.00026939664 0.0010183816 0.0013108831 0.0011017979 0.0019370182 -0.0005189236
0.0004552868 -0.00063873286 0.0041868105 0.0034744057 0.0022914403 0.0053290343 0.0006530081 0.005425431
0.0015280519 0.000535667 0.00051102426 0.0015616443 0.0010644014 0.001154275 -0.00028177816 -0.0005825461
-4.9172464e-05 -0.0022622184 -0.0030313337 0.0016907344 0.0033078196 0.0026703647 0.0044352417 0.0019942978
0.0002657215 0.0027686942 -0.00093520206 -0.00028127988 0.0014828902 0.0007954457 0.00092950126 0.003564835
0.00047021313 9.9861994e-05 0.0028561738 0.00015132502 0.0008753524 0.003871936 0.0012436721 0.0017750668
0.00019546336 0.0010237636 0.00082719885 0.002311451 0.004125865 0.0012556842 0.0011951397 0.00048798276
0.0009446105 0.0015355638 -0.0008119307 0.001833126 0.00016473336 0.0024750794 0.0023079228 0.0026704515
0.0014995605 0.0013488795 0.0031700244 0.00038477223 0.00023286381 0.002567176 0.0011916338 0.0017698588
0.0029614463 0.00318549 0.001944295 0.0017042465 0.0019147834 0.00065050117 -0.00029673683 0.0013500785
0.0005629167 0.003110741 0.002825299 0.001796135 0.0024135786 0.0019478546 0.0011172103 0.0007603969
0.0018414804 0.001180026 0.00088127283 -0.0008561833 0.00020492368 0.0006366029 0.0005104383 0.0001883632
-0.00024367723 -0.0019196878 -0.0010201257 0.0024943259 0.0005661356 -0.0004755199 0.0019514939 9.480906e-05
-0.0010298879 0.0010482452 0.0016093832 -0.0015206469 0.0032061997 -2.9658288e-05 0.00071542704 0.0023248643
0.0013416226 0.00061245624 0.002794536 0.0022529266 -9.879034e-06 0.0047015985 0.0023460414 0.002665062
0.0052360413 0.0021749688 0.0010914904 0.00218623 -0.0004712918 -0.0009501716 0.0005252187 0.0012871003
0.0021963355 0.0023839136 0.0017074264 0.0037286985 0.0039577754 0.0028640036 0.0034434777 0.006579127
0.0035025722 0.0033066238 0.005222833 0.0035738305 0.00021534284 0.0035507914 0.0012867682 -0.0012217959
-0.0016459043 -0.0045033037 -0.0032171032 0.0003372541 -0.0016568175 -0.0040087295 -0.0031856357 -0.0010590728
-0.00016588709 -0.0020160787 -0.0025003715 -0.0027875004 -4.8959526e-05 -0.0009988273 -0.0034752758 -0.0011275093
-0.00015485918 0.010431853 0.00055819895 -0.00028450717 -0.0032971192 -0.0025450054 -0.0003161508 0.005936639
-0.0022932943 0.0056857443 0.012394108 -0.00086464424 -0.0018917897 -0.002441215 -0.0007380543 -0.003005734
0.0006229001 -0.00095741235 0.0076668793 0.013203992 -0.0017941718 -0.0032932423 -0.0005642119 -0.0011566639
00000000: 5de4 2f3a fdcc fe39 1a04 6f3b 7fbe ddb9
00000010: 2833 793b cb8e 803b e4e9 b13a fa79 463b
00000020: 000c 1fba a94a 5c3b facd ebba fa42 403c
00000030: d84e 3739 cefd d23b c7ac b63b 914f dc3a
00000040: 4db4 523b 3734 af3a 0528 dbb6 e6e6 623b
00000050: aa27 4c3b 8baa 683b 0223 043b 1e2b b53a
00000060: b942 e7b9 e53e 1fbb 0f0e 54ba 1f13 3c3b
00000070: a105 c53b 8e58 de3b 3e7c 113b 0021 dc3b
00000080: fcb3 7439 c47c a4b9 8c9e 3337 507f 92bb
00000090: b186 d739 b782 873b 2e0f 983a dd64 bb3a
000000a0: b506 853b 3bf9 0cbb e54e c639 1f3b d63a
000000b0: 9f72 b5ba c827 b63b 2972 aa3b 9ac0 923b
000000c0: 844d ee3a dd42 503a dee5 043b 8991 6e3b
000000d0: 2f19 183c 9ada 013c f36a 5f3b 3191 833b
000000e0: da12 74ba 5023 9c3b 3c5f 883a f160 29ba
000000f0: 963a 433b 02d5 3e3b 6d6a a43b cdab 263b
00000100: efb9 a13b f2cd 8b3b 7bd4 233b 319c aa3b
00000110: 7d39 edb9 50c2 973b ee5d c53b 5cf5 6e3b
00000120: 9d8c f539 e135 c53a ce3d 8db9 377b 853a
00000130: f0d1 ab3a 346a 903a 8ce3 fd3a 6008 08ba
00000140: 8fb3 ee39 a370 27ba 8331 893b dbb2 633b
00000150: fd2b 163b 2e9f ae3b a22e 2b3a d0c7 b13b
00000160: ea48 c83a 016c 0c3a 42f6 053a 16b0 cc3a
00000170: 6283 8b3a 0b4b 973a a0bb 93b9 02b6 18ba
00000180: 883e 4eb8 ba41 14bb 57a9 46bb a29b dd3a
00000190: 01c8 583b 4901 2f3b 8155 913b c4b2 023b
000001a0: 8950 8b39 fb72 353b 5928 75ba bf78 93b9
000001b0: 8a5d c23a 7585 503a c6a9 733a 02a0 693b
000001c0: f086 f639 006d d138 a52e 3b3b 00ad 1e39
000001d0: e877 653a 4ec0 7d3b b602 a33a 5ca9 e83a
000001e0: 4cf5 4c39 ce2f 863a 60d8 583a b67b 173b
000001f0: 4432 873b c595 a43a 3ca6 9c3a f0d7 ff39
00000200: bd9f 773a f944 c93a bfd7 54ba 8045 f03a
00000210: 46bc 2c39 f134 223b 8540 173b be02 2f3b
00000220: e78c c43a e3cc b03a 2fc0 4f3b 41bb c939
00000230: e72c 7439 113e 283b 9830 9c3a 9bfa e73a
00000240: d314 423b a7c3 503b b7d7 fe3a 0661 df3a
00000250: 78f9 fa3a 6586 2a3a 5893 9bb9 1ef5 b03a
00000260: b390 133a 93dd 4b3b a728 393b 4a6c eb3a
00000270: 212d 1e3b 284f ff3a 5b6f 923a 5f55 473a
00000280: d45d f13a 1aab 9a3a 3805 673a 7d71 60ba
00000290: c8e0 5639 b3e1 263a efce 053a 5d83 4539
000002a0: 9c83 7fb9 099e fbba bdb5 85ba d877 233b
000002b0: b868 143a 334f f9b9 45c9 ff3a 3ad4 c638
000002c0: 4efd 86ba 4665 893a f0f1 d23a 7150 c7ba
000002d0: 1b1f 523b b0ca f8b7 7f8b 3b3a c05c 183b
000002e0: 62d9 af3a 3e8d 203a 8924 373b d6a5 133b
000002f0: 21be 25b7 de0f 9a3b 0bc0 193b 52a8 2e3b
00000300: 1993 ab3b ec89 0e3b 5710 8f3a da46 0f3b
00000310: b717 f7b9 f014 79ba d5ae 093a ebb3 a83a
00000320: 65f0 0f3b 6f3b 1c3b b9cb df3a 2e5d 743b
00000330: 3ab0 813b 02b2 3b3b f8ab 613b b895 d73b
00000340: 698b 653b f1b3 583b 4c24 ab3b ed36 6a3b
00000350: a7cd 6139 65b4 683b c7a8 a83a ab24 a0ba
00000360: 62bb d7ba 7390 93bb 09d6 52bb 7bd1 b039
00000370: 9229 d9ba a95b 83bb 19c6 50bb 96d0 8aba
00000380: faf1 2db9 3020 04bb 46dd 23bb 7fae 36bb
00000390: e459 4db8 15eb 82ba 74c1 63bb efc8 93ba
000003a0: b261 22b9 5dea 2a3c 1954 123a e829 95b9
000003b0: 7b14 58bb 1bca 26bb 0bc1 a5b9 2388 c23b
000003c0: 184b 16bb 7b4f ba3b a810 4b3c 4ba9 62ba
000003d0: eef5 f7ba cbfc 1fbb fc79 41ba d9fb 44bb
000003e0: 1e4a 233a dbfa 7aba 723a fb3b 8e55 583c
000003f0: 6a2a ebba 70d3 57bb 9fe7 13ba 339b 97ba

exp_avg_sq f4 [16, 8, 3, 3]
0.00015309454 0.0001989825 0.0002692245 4.8968974e-05 0.00018445308 0.0003087926 0.00010551884 0.00035823308
0.00041316435 0.00025260777 8.222368e-05 0.0003945885 4.0474548e-05 0.00023922726 0.00085903815 0.00022627604
0.00078265293 0.0007128272 3.0737458e-05 7.975051e-05 0.00026966765 0.00018306448 0.00038194965 0.0004097213
0.00026832084 0.00019345936 0.00013884246 6.237363e-05 0.00015803435 0.00046017513 0.00012426129 0.00066618633
0.0006802351 0.0005116773 0.0008060519 0.00023305615 5.229765e-05 0.00019117571 0.00021316666 0.00012724458
0.0003689824 0.0001603377 0.00025904528 0.00036907606 7.806906e-05 0.000631501 0.00036025242 0.00011096026
0.00019325488 6.6904366e-05 0.00014621473 0.000166118 0.0002867398 0.00044183712 0.00090396794 0.0008896838
0.00065693085 0.0009986829 0.0006760765 0.00029947353 0.00080202013 0.00035195207 0.00030566857 0.00051101536
0.00046989374 0.00025274928 0.00019479054 0.00035150145 0.00021667093 0.00030516763 0.0005393486 0.00038790648
0.00021767386 0.0003850477 0.00024598575 0.00023417392 0.0004622407 0.00021687247 0.00028458994 0.0005136571
0.00024041157 0.00013597986 0.0004743902 0.00051949127 0.00020607204 0.0006231298 0.0003553552 0.0004297262
0.0004911442 0.00022212649 0.000134732 0.00021436856 0.00018385072 0.00014370037 0.00013378891 0.00018613745
9.639401e-05 0.00012029512 0.0002648709 0.00027846324 0.00047413618 0.00020647942 0.00048798518 0.00040401236
7.999477e-05 0.0004674187 0.00017704566 9.620154e-05 0.00025710373 0.00024056036 3.9696642e-05 0.00035965515
0.00019747688 1.3631506e-05 0.00031524792 0.0001719385 1.7829438e-05 0.00024272416 0.00012720031 0.00024150798
0.00014746925 0.00012676329 0.00021195362 0.00020516281 0.00027293642 0.00018563868 0.00034874125 0.00013062936
0.000201344 0.00028973832 4.9877905e-05 0.00025702175 0.00022707456 6.113047e-05 0.00027175003 0.0005275985
0.00039323646 0.00020603913 0.00052573066 0.00034597458 0.00012108483 0.0005687056 0.0005412223 0.00017957552
0.00044179682 0.0003820949 0.00032845722 0.0005923349 0.0004777336 0.00015288575 0.00045287888 0.00066757237
0.00028657622 0.0005071784 0.0009744099 0.00053032296 0.0005114319 0.0004735342 0.00025994374 0.00038659747
0.0004238389 0.00037801362 0.00032554474 0.0002704641 0.000118623175 0.00019264896 0.000405853 0.00043233734
0.0001210556 0.00031361 0.00041777478 0.0005878675 0.00047273462 0.0001946641 0.00045345037 0.00022654589
0.0002267094 0.00032234713 0.00023203259 0.00027848687 0.00027029094 0.00010031865 6.5228654e-05 0.00034526954
7.073719e-05 7.434891e-05 0.0003745687 0.0001402565 5.7227422e-05 0.00027697437 0.00058257696 0.00092417956
0.00043832618 0.0003238677 0.0003327098 0.0007470327 0.0006063478 0.00046300748 0.00029014534 0.00022993759
0.00036419177 0.00022967168 0.00024022849 0.0005302752 0.00034659775 0.00021476201 0.00039445492 0.0006165668
0.00054364704 0.00080660154 0.0009841513 0.00031581149 0.00027054347 0.0012562246 0.000911685 0.0004841068
0.00015344606 0.00033355248 0.000638335 2.496808e-05 4.2697407e-05 0.00031026715 0.00010415946 4.6434056e-05
0.00017139845 0.00016716238 0.00024908164 0.00039355518 7.1749266e-05 7.581834e-05 0.00016971574 7.7734294e-05
0.00012805566 0.0004750199 2.9188732e-05 5.0351573e-05 0.00013229946 0.000124533 6.0623515e-05 0.000114385526
0.0005979418 0.0007775576 0.0007468704 7.510216e-05 0.00019091548 0.00030084333 2.2501754e-05 5.9464055e-05
0.00022867716 0.0002376674 0.00049285137 0.00078139344 8.884307e-05 0.0002382147 0.00027734874 2.2568034e-05
00000000: 0188 2039 f5a5 5039 b326 8d39 0964 4d38
00000010: bf69 4139 71e5 a139 ff49 dd38 3bd1 bb39
00000020: fb9d d839 7170 8439 816f ac38 c6e0 ce39
00000030: 37c3 2938 14d9 7a39 1331 613a 8344 6d39
00000040: f32a 4d3a 06dd 3a3a 18ec 0038 bb3f a738
00000050: 2e62 8d39 fff4 3f39 6a40 c839 ddcf d639
00000060: 6aad 8c39 5adb 4a39 3d96 1139 96ce 8238
00000070: 06b6 2539 a943 f139 234c 0239 02a3 2e3a
00000080: ce51 323a 1522 063a 3a4d 533a 8960 7439
00000090: 2d5a 5b38 5776 4839 7d85 5f39 f56c 0539
000000a0: fb73 c139 5320 2839 78d0 8739 8d80 c139
000000b0: 02b9 a338 518b 253a 43e0 bc39 56b3 e838
000000c0: 76a4 4a39 024f 8c38 3851 1939 f62f 2e39
000000d0: 9155 9639 60a6 e739 43f8 6c3a ab39 693a
000000e0: e235 2c3a 3de6 823a ba3a 313a a802 9d39
000000f0: a93e 523a 3586 b839 2442 a039 a9f5 053a
00000100: 125c f639 6f83 8439 b040 4c39 ba49 b839
00000110: 2932 6339 e8fe 9f39 1263 0d3a ed5f cb39
00000120: 623f 6439 3ae0 c939 a6f7 8039 958c 7539
00000130: e658 f239 4368 6339 0435 9539 f2a6 063a
00000140: fd16 7c39 d195 0e39 93b7 f839 782e 083a
00000150: 0b15 5839 8859 233a f84e ba39 e04c e139
00000160: 21c0 003a a0ea 6839 d946 0d39 1fc8 6039
00000170: 0dc8 4039 46ae 1639 b049 0c39 e42d 4339
00000180: 2427 ca38 f346 fc38 5fde 8a39 b4fe 9139
00000190: 7b95 f839 6682 5839 43d8 ff39 9fd1 d339
000001a0: ddc2 a738 e00f f539 55a5 3939 cfbf c938
000001b0: e1cb 8639 ee3e 7c39 f27f 2638 1990 bc39
000001c0: cc11 4f39 dfb2 6437 dc47 a539 644a 3439
000001d0: 6d90 9537 c583 7e39 1361 0539 4e3d 7d39
000001e0: faa1 1a39 c3eb 0439 de3f 5e39 f920 5739
000001f0: e818 8f39 01a8 4239 42d7 b639 8df9 0839
00000200: de1f 5339 05e8 9739 fe33 5138 e0c0 8639
00000210: dd1a 6e39 2c33 8038 ac79 8e39 894e 0a3a
00000220: 4e2b ce39 350c 5839 30d1 093a ec63 b539
00000230: ecee fd38 3015 153a d0e0 0d3a 704c 3c39
00000240: f7a0 e739 e953 c839 c834 ac39 ec46 1b3a
00000250: 5278 fa39 f54f 2039 6070 ed39 0600 2f3a
00000260: 9c3f 9639 2bf4 043a 8b6f 7f3a 5f05 0b3a
00000270: 9d11 063a af44 f839 0f49 8839 3cb0 ca39
00000280: b236 de39 2130 c639 e0ad aa39 14cd 8d39
00000290: 55c5 f838 d001 4a39 abc8 d439 56ab e239
000002a0: 3bdf fd38 066c a439 c808 db39 1f1b 1a3a
000002b0: 5ed9 f739 bf1e 4c39 14bd ed39 f38c 6d39
000002c0: d7b8 6d39 b300 a939 c64d 7339 e001 9239
000002d0: d6b5 8d39 2a62 d238 5ecb 8838 4b05 b539
000002e0: bd58 9438 c4eb 9b38 c361 c439 d111 1339
000002f0: 7a07 7038 df36 9139 14b8 183a a444 723a
00000300: 25cf e539 c9cc a939 8e6f ae39 84d4 433a
00000310: 50f3 1e3a d0bf f239 a61e 9839 671b 7139
00000320: fef0 be39 06d4 7039 d8e5 7b39 2b02 0b3a
00000330: 90b7 b539 bd31 6139 d8ce ce39 19a1 213a
00000340: 8983 0e3a 1d72 533a a3fe 803a 8093 a539
00000350: bbd7 8d39 e7a7 a43a 25fe 6e3a b7cf fd39
00000360: 5de6 2039 a8e0 ae39 f055 273a 8b72 d137
00000370: fe15 3338 5aab a239 2f70 da38 30c2 4238
00000380: 6cb9 3339 4f48 2f39 2c97 8239 1556 ce39
00000390: 1878 9638 a900 9f38 b9f5 3139 4805 a338
000003a0: ae46 0639 170c f939 53da f437 9730 5338
000003b0: deb9 0a39 1395 0239 0146 7e38 43e2 ef38
000003c0: 32bf 1c3a 02d5 4b3a a0c9 433a 2a80 9d38
000003d0: 7c30 4839 82ba 9d39 26c2 bc37 0b69 7938
000003e0: 0fc9 6f39 5b36 7939 b232 013a 6dd6 4c3a
000003f0: 4351 ba38 46c9 7939 1e69 9139 7c50 bd37

exp_avg f4 [16]
0.0023362464 0.0012404193 0.0019956804 -0.0010574274 -0.0031797884 0.003514913 0.00049392576 0.0026260773
0.0023702395 0.008265596 0.00043255003 -0.0024950781 -0.0016439381 -0.0014633465 -0.0005553945 9.033103e-05
00000000: b61b 193b 9195 a23a f6c9 023b 6099 8aba
00000010: ff63 50bb 745a 663b cc7a 013a 441a 2c3b
00000020: 0556 1b3b 6c6c 073c e2c7 e239 7784 23bb
00000030: 6979 d7ba c3cd bfba e597 11ba 1a70 bd38

exp_avg_sq f4 [16]
0.00026465615 0.00016060332 0.00026754657 0.0004527539 0.00026394805 0.00011235427 0.0003262052 0.00049106166
0.00014211504 0.0006232947 0.0002414464 0.00026766444 0.00028455432 0.00014218704 9.02643e-05 0.00015227716
00000000: 8cc1 8a39 a067 2839 7e45 8c39 9a5f ed39
00000010: 8262 8a39 bd9f eb38 8506 ab39 97ba 003a
00000020: b704 1539 9964 233a c62c 7d39 5055 8c39
00000030: 3c30 9539 0b18 1539 474c bd38 97ac 1f39

exp_avg f4 [32, 16, 3, 3]
-0.00038506833 0.0037278808 0.0032738731 0.008368675 0.0044550626 0.00029572338 0.001523497 0.01049984
0.0014106082 -3.0077452e-05 0.00093705667 0.0008172936 -7.835748e-05 0.0023817208 0.0009643055 0.002320019
0.010362879 0.00017726595 -0.00040218554 -0.0005250189 0.00025655053 -0.00020891923 -0.00067055336 0.001158044
0.0076142848 0.0046981117 0.0016542316 0.009788247 0.00918607 0.0041919244 -0.0001799343 3.4167548e-05
0.0044392105 0.0007587061 1.7319298e-05 0.0008929375 -0.0002502532 -0.0008030937 0.00070001074 0.011182521
0.010406531 0.0022730941 0.010728548 0.004612465 0.0039213914 0.0020424698 0.0011740896 0.00047196785
-0.0009375214 0.0031064707 0.008143532 0.019632386 0.017437838 0.008026598 -0.00036741534 0.00027712164
0.0012232014 0.0073015583 0.0021993215 0.00081566663 0.00862622 0.005768791 0.0025734818 0.0015935706
0.003602353 0.0023650075 0.003872547 0.004641048 0.000993216 0.012724692 0.009803952 0.00017149713
-0.0002890975 -0.00090427254 0.0033661376 0.014514753 0.014764942 0.005069354 0.014199813 0.009859686
0.0059851143 0.010296331 0.0080235265 0.0014304746 0.0012882114 0.0017238864 0.0029594733 0.009203915
0.0014135864 -0.0004196135 0.008874725 0.011794296 0.0070738266 0.027600097 0.02153038 0.0063181412
0.008508106 0.0013144471 0.0038538112 0.011390255 0.011438167 0.008263417 0.0040860246 0.00017509876
0.007689153 0.0027737706 0.0010996131 0.008447489 -0.0016293485 0.00022681478 3.094765e-05 0.008238616
0.012247011 0.0014039153 0.0022557327 0.0044021765 0.00604118 0.0011466842 4.1932675e-05 4.056876e-06
0.00026604946 0.0003243087 0.003011818 0.015337747 0.0019255703 0.0022668142 -7.444059e-05 0.00033731238
-8.14727e-05 -5.892625e-05 -6.274596e-05 0.00027488286 0.0010294678 0.0013905332 0.0007429952 0.000265381
-0.00043745904 0.00085010653 0.0010566283 0.0011020715 0.0021390575 0.01330936 0.00497124 0.0057512736
0.00041679962 -0.00085723354 -0.001761367 -0.002810488 -0.014217117 -0.00775999 -0.004004124 -0.0045166886
-0.00047909567 0.0021827163 0.0010943931 0.000110688714 0.0006961629 0.00011389996 -4.1370666e-05 0.00059951906
-0.0017864091 0.0010319626 0.00051594235 0.0008570059 -4.9294654e-06 -0.00033954647 0.00084377563 -0.00051570503
-0.0016786492 -0.013436085 -0.0065136873 -0.0035380588 -0.007081578 -0.00881104 -0.0031469709 -0.0012459344
-0.00047709644 -0.009480199 -0.005019834 0.00066034193 0.0006488607 9.846587e-05 -0.0008246898 -0.00046175535
-0.0036300495 -0.011839728 -0.0014023798 -0.014365658 -0.013670894 0.00096248474 0.0006946798 -0.002549124
0.0007694872 -0.0015688981 -0.004024774 -0.00035961927 -0.016856425 -0.021074612 3.774997e-05 1.6591697e-05
-0.0006438978 0.0003181119 -0.00019734153 -0.011390322 0.00066774734 -0.001456646 -0.009807742 0.0019750996
-0.0008717659 -0.0036626568 -0.0048719384 -0.00720554 -0.0048954906 -0.010601777 -0.0033364624 -0.01060866
0.0007420908 -0.00035782778 -0.0041194567 0.0005754505 -0.0076718847 -0.01665857 -0.0023518829 -0.015838642
-0.01529339 -0.00035796073 -0.006468565 -0.011069547 -0.00033967005 -0.0007836113 -0.0008356794 -0.0072773388
-0.016965097 -0.01066977 -6.0372244e-05 -0.0045478097 -0.014369201 -0.0058920626 -0.026477437 -0.02940292
-0.004239933 -0.0078418 -0.010072553 -0.011433514 -0.009882253 -0.008127031 -0.012296869 -0.009269298
0.0007603149 -0.009466921 0.00014904329 -0.002361153 0.00031502446 -0.00016876768 -0.0009813173 0.0005762997
00000000: ffe2 c9b9 764f 743b 7a8e 563b c41c 093c
00000010: c6fb 913b 520b 9b39 14b0 c73a 8507 2c3c
00000020: 28e4 b83a d64e fcb7 cfa4 753a a53f 563a
00000030: da53 a4b8 a516 1c3b 72c9 7c3a 760b 183b
00000040: 11c9 293c 77e0 3939 6edc d2b9 6ca1 09ba
00000050: a181 8639 5411 5bb9 13c8 2fba 82c9 973a
00000060: 4081 f93b 9ef2 993b cdd2 d83a e25e 203c
00000070: 2c81 163c 695c 893b bfac 3cb9 204f 0f38
00000080: cc76 913b e8e3 463a e948 9137 0514 6a3a
00000090: 6a34 83b9 b586 52ba ed80 373a e436 373c
000000a0: 2880 2a3c 31f8 143b cbc6 2f3c 2924 973b
000000b0: 047f 803b f5da 053b e9e3 993a 7472 f739
000000c0: ffc3 75ba ee95 4b3b 736c 053c 19d4 a03c
000000d0: ccd9 8e3c fe81 033c a7a1 c0b9 a34a 9139
000000e0: d453 a03a e941 ef3b 7e22 103b 76d2 553a
000000f0: fd54 0d3c 2008 bd3b dca7 283b 5bdf d03a
00000100: 7415 6c3b 3efe 1a3b 8fca 7d3b ef13 983b
00000110: cc2e 823a 3a7b 503c c1a0 203c e9d3 3339
00000120: 0292 97b9 b40c 6dba 6b9a 5c3b 49cf 6d3c
00000130: a8e8 713c d31c a63b 55a6 683c 858a 213c
00000140: c71e c43b f1b1 283c 1c75 033c c37e bb3a
00000150: 34d9 a83a 07f4 e13a b9f3 413b 04cc 163c
00000160: 1748 b93a 92ff dbb9 4b67 113c dd3c 413c
00000170: 8fcb e73b 9919 e23c 7b60 b03c 6908 cf3b
00000180: 9565 0b3c 8749 ac3a 3990 7c3b 319e 3a3c
00000190: 2667 3b3c 4863 073c 0fe4 853b b79a 3739
000001a0: 4af5 fb3b 26c8 353b e520 903a 5667 0a3c
000001b0: dd8f d5ba 21d5 6d39 c9cd 0138 43fb 063c
000001c0: b0a7 483c 9503 b83a ead4 133b 2240 903b
000001d0: 17f5 c53b 564c 963a dee0 2f38 4d20 8836
000001e0: 8e7c 8b39 fa07 aa39 ec61 453b 2c4b 7b3c
000001f0: 6b63 fc3a d58e 143b fd1c 9cb8 4dd9 b039
00000200: 53dc aab8 9427 77b8 7b96 83b8 271e 9039
00000210: 35ef 863a 8d42 b63a 90c5 423a d622 8b39
00000220: c25a e5b9 afd9 5e3a 907e 8a3a 6273 903a
00000230: 6e2f 0c3b 800f 5a3c c9e5 a23b 2e75 bc3b
00000240: e685 da39 f8b7 60ba abdd e6ba 2a30 38bb
00000250: e9ee 68bc 8447 febb 0735 83bb bb00 94bb
00000260: 222f fbb9 e70b 0f3b bd71 8f3a 8d21 e838
00000270: b47e 363a 93dd ee38 6a85 2db8 0b29 1d3a
00000280: f125 eaba eb42 873a 4e40 073a b1a8 603a
00000290: c967 a5b6 2805 b2b9 d330 5d3a 6130 07ba
000002a0: 1f06 dcba 0623 5cbc c570 d5bb c7de 67bb
000002b0: 950c e8bb 2e5c 10bc 693d 4ebb 9f4e a3ba
000002c0: cd22 fab9 d652 1bbc 6b7d a4bb cc1a 2d3a
000002d0: 4e18 2a3a 767f ce38 ff2f 58ba c117 f2b9
000002e0: 20e6 6dbb 6bfb 41bc 0fd0 b7ba f05d 6bbc
000002f0: e3fb 5fbc 424f 7c3a 2c1b 363a 340f 27bb
00000300: 69b7 493a 7ca3 cdba 40e2 83bb 488b bcb9
00000310: 7c16 8abc aaa4 acbc b955 1e38 662e 8b37
00000320: 40cb 28ba 42c8 a639 77ed 4eb9 799e 3abc
00000330: c40b 2f3a eeec beba a7b0 20bc ac70 013b
00000340: 3887 64ba 2f09 70bb c8a4 9fbb 731c ecbb
00000350: 5a6a a0bb 13b3 2dbc 8da8 5abb f2cf 2dbc
00000360: df88 423a d59a bbb9 82fc 86bb d4d9 163a
00000370: 6f64 fbbb 8e77 88bc 0c22 1abb 0ac0 81bc
00000380: 2091 7abc adac bbb9 42f6 d3bb 0c5d 35bc
00000390: be15 b2b9 446b 4dba 7f11 5bba be76 eebb
000003a0: 63fa 8abc 42d0 2ebc 3438 7db8 cb05 95bb
000003b0: cc6c 6bbc 3412 c1bb 36e7 d8bc 64de f0bc
000003c0: 23ef 8abb e57a 00bc 5907 25bc a253 3bbc
000003d0: 2ce9 21bc 3d27 05bc cf78 49bc 41de 17bc
000003e0: df4f 473a 251b 1bbc 8148 1c39 93bd 1abb
000003f0: de29 a539 3bf7 30b9 8b9f 80ba d112 173a
